python/trained_goal_obstacle.pt (torch_old, 621704 bytes, 36 tensors)

left_cnn.0.weight f4 [8, 3, 5, 5]
0.0013103801 -0.027874839 0.106248654 0.027127953 0.09727892 0.06919094 0.10068096 -0.046888184
0.122180425 0.01766903 -0.082874306 0.13345893 -0.014972772 0.110452764 -0.060703553 -0.057427693
-0.040871333 -0.033962335 -0.0037628254 0.02944276 0.0647007 0.10342918 0.06444474 -0.007852238
0.0011143907 0.014257713 0.07695736 0.07574693 -0.075890616 -0.047624595 0.12648545 -0.09061216
0.11445265 0.06701372 0.08344121 -0.011421488 0.055568453 0.047464307 0.12638474 0.11718956
0.053509947 0.06779718 0.1329298 0.049773987 0.03423422 0.10596672 0.021261418 0.13722092
0.054523684 0.010933276 -0.087797195 -0.05207712 0.095326625 0.105960175 -0.0033603748 0.104247935
0.13605891 -0.017513894 0.12292275 0.08113025 0.12822084 0.03632362 0.107092746 0.086708784
-0.06489193 0.11347331 -0.018592961 0.13045721 -0.012391063 -0.016672468 0.14313121 0.09848079
0.11862591 0.083797626 0.023215763 -0.02010678 0.09767964 0.044461247 0.12493094 0.10569438
-0.03026777 -0.034908503 -0.06946764 0.102757454 0.0699687 0.10159785 -0.066409536 0.067633435
-0.09760175 0.09999898 -0.019129885 0.04948966 -0.01539986 0.0118338745 -0.08321228 0.104962975
0.018352192 -0.058383875 -0.020855268 -0.096929274 0.018061811 0.079815134 0.06560923 0.07281967
0.1062237 -0.052913122 -0.059100397 0.06269752 0.011162587 -0.063953295 -0.04044966 0.022225661
0.020696467 -0.08728012 0.062417567 0.04280928 0.08531315 0.024084568 -0.020584628 0.09724455
0.044686347 0.0093823485 0.0192402 -0.077503785 0.07199314 -0.074849024 0.11367554 0.10619897
0.06273028 0.029943174 0.11356058 0.07358211 0.10698631 -0.062850244 0.08374096 -0.02398971
-0.008041691 0.0039535235 0.055973068 0.006959768 -0.097397044 0.113677256 0.019744333 -0.11011171
-0.100155406 0.027467571 0.0048605697 -0.090404734 -0.09482625 -0.048681438 -0.08197019 -0.056081656
-0.030013813 -0.055855405 0.07765887 0.07064194 -0.008568273 0.014163299 -0.038739495 -0.013939899
0.08185505 0.05381292 0.08274424 -0.02951556 -0.09215742 -0.04799095 -0.07707453 0.077845186
-0.0477346 0.107305616 0.1258895 0.050486583 0.010622208 0.014885202 0.1325395 0.091394044
0.11660312 -0.089833 -0.089329 0.050990336 0.09299347 0.015577178 0.07612515 0.0896359
0.09349857 -0.06553167 -0.007368868 0.016523838 0.10034271 0.1251648 0.045227475 -0.061683156
0.06533731 -0.02031433 0.052251887 0.041817453 -0.07004392 0.14571305 -0.05381617 0.041649207
0.03526538 -0.016816212 0.08056112 -0.06634008 -0.03634475 0.078881055 0.120994546 0.117609136
-0.030387484 -0.0128593445 -0.041993674 0.032099627 0.05405792 0.08395357 0.02622911 0.076030605
0.11495908 -0.06565955 -0.035828944 0.12571585 0.13055895 -0.06663263 0.12333702 0.14301343
0.054506935 -0.062862195 -0.11455208 -0.030531205 -0.011370432 -0.15332645 0.053914584 -0.008112503
0.0024066947 -0.12946129 -0.092203684 -0.08504289 -0.02682474 0.05120165 -0.13755357 -0.0800237
-0.10796074 0.037267804 -0.1383844 -0.09148341 0.01572669 -0.0031314904 -0.040483117 -0.080501005
-0.15109763 -0.11277106 -0.13057518 0.03121351 -0.035015535 -0.1354518 -0.04976416 -0.051665545
00000000: 0fc1 ab3a c659 e4bc e598 d93d 713b de3c
00000010: 2c3a c73d fbb3 8d3d d231 ce3d d30d 40bd
00000020: bb39 fa3d a4be 903c 01ba a9bd 75a9 083e
00000030: 5c50 75bc 0f35 e23d 4aa4 78bd 4d39 6bbd
00000040: b368 27bd 171c 0bbd bc99 76bb f131 f13c
00000050: cd81 843d aed2 d33d 9bfb 833d aca6 00bc
00000060: bf10 923a 2f99 693c d29b 9d3d 3521 9b3d
00000070: 8a6c 9bbd 0212 43bd 6785 013e de92 b9bd
00000080: 2766 ea3d 7d3e 893d 3ae3 aa3d 3121 3bbc
00000090: bf9b 633d ef69 423d 006b 013e 1401 f03d
000000a0: 3f2d 5b3d 3fd9 8a3d c01e 083e cfdf 4b3d
000000b0: 2e39 0c3d 1405 d93d 6d2c ae3c a483 0c3e
000000c0: 3a54 5f3d 7c21 333c 04cf b3bd d14e 55bd
000000d0: 9b3a c33d a601 d93d bc39 5cbb f17f d53d
000000e0: 0753 0b3e 4c79 8fbc ecbe fb3d 9e27 a63d
000000f0: 534c 033e 13c8 143d 7153 db3d 6094 b13d
00000100: 0fe6 84bd b264 e83d 4450 98bc 9396 053e
00000110: e303 4bbc b394 88bc fd90 123e 4cb0 c93d
00000120: 24f2 f23d 179e ab3d fc2e be3c f9b6 a4bc
00000130: 430c c83d ff1c 363d cbdb ff3d 4c76 d83d
00000140: 1df4 f7bc 38fc 0ebd 0d45 8ebd 8072 d23d
00000150: c04b 8f3d 8912 d03d b901 88bd 6683 8a3d
00000160: 6de3 c7bd 44cc cc3d 47b6 9cbc abb5 4a3d
00000170: b24f 7cbc dee2 413c 336b aabd d4f6 d63d
00000180: 5657 963c ee23 6fbd abd8 aabc db82 c6bd
00000190: 5df6 933c 1e76 a33d 225e 863d 7b22 953d
000001a0: d08b d93d 6ebb 58bd 4213 72bd 8f67 803d
000001b0: 49e3 363c f2f9 82bd 8bae 25bd 9712 b63c
000001c0: a38b a93c ebbf b2bd 90a9 7f3d c958 2f3d
000001d0: a9b8 ae3d 004d c53c 18a1 a8bc 2728 c73d
000001e0: 0809 373d 6cb8 193c a09d 9d3c 4eba 9ebd
000001f0: 2471 933d 724a 99bd b9ce e83d d87e d93d
00000200: bc78 803d 634b f53c 7392 e83d 38b2 963d
00000210: a31b db3d a1b7 80bd 6180 ab3d 1186 c4bc
00000220: 4cc1 03bc 8f8c 813b 0444 653d c40e e43b
00000230: 1a78 c7bd 9fcf e83d debe a13c 4082 e1bd
00000240: 471e cdbd ac03 e13c 6a45 9f3b 1e26 b9bd
00000250: 4434 c2bd 3066 47bd fddf a7bd e1b5 65bd
00000260: 87df f5bc a3c8 64bd 9d0b 9f3d b9ac 903d
00000270: f161 0cbc 2f0d 683c 4ead 1ebd 2d64 64bc
00000280: 9fa3 a73d f06a 5c3d d075 a93d 9eca f1bc
00000290: 08bd bcbd 2992 44bd 40d9 9dbd 4c6d 9f3d
000002a0: 5b85 43bd 0cc3 db3d 2de9 003e 05cb 4e3d
000002b0: c508 2e3c 10e1 733c 6fb8 073e cd2c bb3d
000002c0: 9ecd ee3d 5dfa b7bd 1ff2 b6bd 3edb 503d
000002d0: 5c73 be3d 6c37 7f3c 81e7 9b3d 0793 b73d
000002e0: 2e7c bf3d 7835 86bd 8c76 f1bb 005d 873c
000002f0: 7b80 cd3d 342b 003e 7240 393d 7aa7 7cbd
00000300: 91cf 853d 3d6a a6bc 1306 563d c748 2b3d
00000310: 3073 8fbd cd35 153e 586e 5cbd 5c98 2a3d
00000320: 6e72 103d 27c2 89bc 3afd a43d 4fdd 87bd
00000330: 3cde 14bd 648c a13d fdcb f73d 0fdd f03d
00000340: 2cef f8bc 00b0 52bc 8f01 2cbd e67a 033d
00000350: d66b 5d3d d9ef ab3d 6ede d63c efb5 9b3d
00000360: ab6f eb3d 8478 86bd 5fc1 12bd a8bb 003e
00000370: 3fb1 053e b076 88bd 1f98 fc3d 1d72 123e
00000380: aa42 5f3d e5bd 80bd 489a eabd 941c fabc
00000390: 0c4b 3abc 9c01 1dbe 8ad5 5c3d 4eea 04bc
000003a0: a3b9 1d3b 8091 04be 49d5 bcbd f72a aebd
000003b0: 8fbf dbbc d2b8 513d d8da 0cbe 77e3 a3bd
000003c0: 851a ddbd 20a6 183d a4b4 0dbe a75b bbbd
000003d0: 42d5 803c b139 4dbb a0d1 25bd b6dd a4bd
000003e0: 56b9 1abe 83f4 e6bd 80b5 05be 7ab3 ff3c
000003f0: 736c 0fbd e0b3 0abe 81d5 4bbd 409f 53bd

left_cnn.0.bias f4 [8]
0.04766317 -0.04602348 0.07649513 0.024011986 -0.21457553 0.08888958 0.23751605 0.14839453
00000000: 753a 433d 1e83 3cbd 7ba9 9c3d c9b4 c43c
00000010: b0b9 5bbe bd0b b63d 6837 733e bcf4 173e

left_cnn.2.weight f4 [16, 8, 5, 5]
-0.0071244766 0.041080706 -0.023880698 0.04975498 0.06457548 -0.01612509 0.108015984 -0.009137841
-0.03406119 0.08315099 0.038828127 0.056878004 -0.014528312 0.08803263 0.084938064 0.012824787
0.055433366 0.0417564 0.06918446 0.012194814 0.011278387 0.04885427 0.080318525 0.055413928
0.04819995 0.00042329717 0.0022408552 0.08146089 0.060771275 -0.04145164 -0.034136098 -0.0010900497
-0.01693167 -0.008320213 -0.009137551 0.09186565 -0.024930175 0.011955035 0.023081016 0.022739574
-0.02049648 0.041538764 0.0823564 0.0036414606 0.11436805 0.10711483 0.021384202 0.10328608
0.025363123 -0.021621214 0.09020695 0.07452739 -0.0083399275 0.04791188 -0.030145686 0.029539322
0.06865592 0.09508357 0.08951925 0.0435228 0.07828168 0.04261684 0.089208685 0.0028299296
-0.005829423 -0.006816687 -0.014135933 0.014690174 0.08772671 0.013378541 0.04228319 0.074075215
0.047675442 0.108488694 0.07210355 -0.013585358 0.060525402 -0.03315335 0.021540096 0.0147468345
-0.010820421 0.012355252 0.027439738 0.03377813 -0.009527508 -0.09489358 -0.011608003 0.045907587
0.027163317 -0.03474166 -0.082113355 -0.03636758 -0.005143946 -0.014945559 0.0033423074 -0.014810327
0.006445409 0.008568695 -0.06176046 0.005165833 -0.063799635 -0.06996772 -0.04498031 -0.09848347
-0.05595509 -0.06882849 -0.0013221061 -0.069369495 -0.024071569 -0.096414946 -0.07468493 0.04098504
0.009061654 -0.050313108 -0.100721434 -0.019850278 -0.005508562 -0.034929343 0.04040102 -0.02370884
-0.12592943 0.020343624 -0.07550963 0.049346022 0.015210746 -0.041821077 0.028212681 -0.05139982
0.0020292725 -0.0677566 -0.08434539 -0.016523924 -0.012934981 -0.1011843 -0.072855905 -0.115222864
0.00524436 0.041407194 0.012662158 -0.054324724 -0.15528773 -0.05208248 -0.021040017 0.022781031
-0.15484697 -0.07953055 -0.009156482 -0.09396938 -0.0036678698 -0.14319952 0.0036455723 -0.030780338
-0.033401027 0.024072228 -0.0664992 -0.062417876 -0.06591025 0.053132135 0.008997936 0.0010292635
-0.09225695 -0.08533471 -0.07505697 -0.0014747621 -0.049157232 -0.11056701 -0.0010140495 -0.056033354
0.029177578 -0.033198785 -0.04076108 0.027164534 -0.019058071 -0.061545864 -0.05085461 -0.0042604697
0.03970044 0.018450744 0.06799559 0.06747248 -0.11253413 -0.012152766 -0.046663735 0.03475986
0.023836607 -0.023700872 0.019004496 0.0076727183 -0.046624698 -0.0041380883 -0.11942531 -0.022480214
-0.06527974 -0.1032904 -0.045000345 -0.15612145 -0.04887773 -0.041449934 -0.097088575 -0.05280697
0.028545475 -0.035435915 0.012256751 0.04014152 -0.05533838 -0.01938942 -0.010842389 0.010108326
0.0040222835 -0.03114481 0.017833812 0.043482814 0.033916067 0.06377561 0.015915588 0.05235221
-0.03223394 0.0036118815 0.061237175 -0.056862783 0.036629483 0.023573551 -0.027720302 -0.0002275536
-0.030468047 -0.0012793867 0.038198147 -0.017168151 0.04292094 0.038418118 0.019835915 -0.013305827
0.058223233 0.0528165 -0.07024533 -0.04816495 0.06340063 0.061853383 0.061447687 -0.035661217
-0.060209986 -0.059979625 -0.01543183 0.010267917 0.025091201 -0.026017893 -0.043211725 -0.022208812
-0.05167964 -0.07336766 -0.016105574 -0.00029296754 0.04584119 -0.033104885 0.034692116 0.046003085
00000000: 7174 e9bb 3e44 283d 74a1 c3bc e1cb 4b3d
00000010: 2640 843d c418 84bc 7c37 dd3d e2b6 15bc
00000020: bf83 0bbd 114b aa3d 3e0a 1f3d e9f8 683d
00000030: 2808 6ebc 744a b43d 02f4 ad3d 0e1f 523c
00000040: 190e 633d c208 2b3d 95b0 8d3d c2cc 473c
00000050: fcc8 383c 6a1b 483d 0a7e a43d b7f9 623d
00000060: 506d 453d fced dd39 50db 123b f8d4 a63d
00000070: 4deb 783d 32c9 29bd 4bd2 0bbd 00e0 8eba
00000080: 49b4 8abc 8151 08bc abb5 15bc 0f24 bc3d
00000090: 5e3a ccbc 0ddf 433c 6614 bd3c 5848 ba3c
000000a0: 3ce8 a7bc 8d24 2a3d 79aa a83d 92a5 6e3b
000000b0: cc39 ea3d 055f db3d ec2d af3c a787 d33d
000000c0: 53c6 cf3c f91e b1bc 6cbe b83d d1a1 983d
000000d0: 31a4 08bc 3f3f 443d 16f4 f6bc 73fc f13c
000000e0: 7a9b 8c3d 2dbb c23d de55 b73d f744 323d
000000f0: 2552 a03d ff8e 2e3d 0bb3 b63d 5776 393b
00000100: bf04 bfbb 845e dfbb 669a 67bc 0eaf 703c
00000110: 10aa b33d ab31 5b3c 2331 2d3d bfb4 973d
00000120: 5347 433d 522f de3d 07ab 933d 1f95 5ebc
00000130: 7ce9 773d cfcb 07bd db74 b03c b59c 713c
00000140: 2348 31bc af6d 4a3c 4dc9 e03c f05a 0a3d
00000150: 4419 1cbc 9157 c2bd 7e2f 3ebc 9809 3c3d
00000160: 9b85 de3c 454d 0ebd 0c2b a8bd 2cf6 14bd
00000170: 8c8e a8bb 38de 74bc 9d0a 5b3b 04a7 72bc
00000180: 0234 d33b b663 0c3c 89f8 7cbd 2646 a93b
00000190: 62a9 82bd 3c4b 8fbd 463d 38bd b4b1 c9bd
000001a0: 2a31 65bd f4f5 8cbd 854a adba 9811 8ebd
000001b0: bd31 c5bc 3375 c5bd 6af4 98bd eedf 273d
000001c0: 5577 143c 1e15 4ebd 0a47 cebd 0d9d a2bc
000001d0: 2b81 b4bb 1212 0fbd 8a7b 253d 0b39 c2bc
000001e0: a5f3 00be aca7 a63c cba4 9abd 0e1f 4a3d
000001f0: 7e36 793c 944c 2bbd 481e e73c 9e88 52bd
00000200: 8bfd 043b f9c3 8abd 47bd acbd 2e5d 87bc
00000210: 3eed 53bc b739 cfbd 7a35 95bd f7f9 ebbd
00000220: e1d8 ab3b 979a 293d f174 4f3c 9a83 5ebd
00000230: bf03 1fbe 7054 55bd 1d5c acbc 499f ba3c
00000240: 3490 1ebe eae0 a2bd 1205 16bc 0573 c0bd
00000250: a560 70bb e5a2 12be 8eea 6e3b 0c27 fcbc
00000260: 84cf 08bd 1f33 c53c bc30 88bd e3a9 7fbd
00000270: f4fb 86bd 15a1 593d 146c 133c 5ae8 863a
00000280: 36f1 bcbd f7c3 aebd 78b7 99bd ce4c c1ba
00000290: 1859 49bd f570 e2bd dbe9 84ba 3b83 65bd
000002a0: d105 ef3c 73fb 07bd 17f5 26bd 2888 de3c
000002b0: ac1f 9cbc 8417 7cbd ec4c 50bd 699b 8bbb
000002c0: ee9c 223d 0426 973c 4641 8b3d 032f 8a3d
000002d0: 4b78 e6bd 651c 47bc 7922 3fbd 5b60 0e3d
000002e0: fd44 c33c 5528 c2bc 51af 9b3c 6d6b fb3b
000002f0: 8af9 3ebd cd98 87bb 4295 f4bd 6d28 b8bc
00000300: 62b1 85bd eb89 d3bd 4852 38bd 4dde 1fbe
00000310: 0434 48bd 68c7 29bd 60d6 c6bd 1f4c 58bd
00000320: 33d8 e93c 4025 11bd 8ad0 483c 6f6b 243d
00000330: 7faa 62bd 90d6 9ebc 47a4 31bc 649d 253c
00000340: 5ccd 833b 6723 ffbc 3718 923c 091b 323d
00000350: 93eb 0a3d c99c 823d 6861 823c 456f 563d
00000360: bc07 04bd 51b5 6c3b d5d3 7a3d f3e8 68bd
00000370: cc08 163d 521d c13c b015 e3bc 749b 6eb9
00000380: 2098 f9bc 18b1 a7ba a975 1c3d 39a4 8cbc
00000390: decd 2f3d 515c 1d3d ee7e a23c af00 5abc
000003a0: 7c7b 6e3d 1d56 583d c9dc 8fbd 9c48 45bd
000003b0: 31d8 813d f959 7d3d 92b0 7b3d 7f11 12bd
000003c0: bf9e 76bd 32ad 75bd c9d5 7cbc c43a 283c
000003d0: 108c cd3c 7a23 d5bc c7fe 30bd 41ef b5bc
000003e0: 08ae 53bd c941 96bd d6ef 83bc 7099 99b9
000003f0: f9c3 3b3d fd98 07bd 5219 0e3d bb6d 3c3d

left_cnn.2.bias f4 [16]
0.0042673643 -0.018935995 0.10344263 -0.00252613 -0.008359228 0.042177428 0.059728567 0.08656408
0.014888375 -0.023320531 0.021425348 -0.032450072 -0.009497183 0.08504906 0.098870434 0.0052415826
00000000: 3fd5 8b3b a91f 9bbc bbd9 d33d 6e8d 25bb
00000010: 25f5 08bc 3dc2 2c3d f1a5 743d 8248 b13d
00000020: 5fee 733c b30a bfbc 3684 af3c 5eea 04bd
00000030: 139a 1bbc 342e ae3d 957c ca3d 95c1 ab3b

left_cnn.4.weight f4 [32, 16, 3, 3]
-2.6550842e-05 -0.060396314 0.029456206 -2.9904535e-05 -0.038132988 -0.016695516 0.041439693 -0.035760712
0.08790225 -0.017391302 0.021078497 0.08881916 0.0039808415 0.06987546 0.07843987 0.06000996
0.069080055 -0.040659904 -0.021516938 -0.0034157266 0.0055299015 0.08108254 0.10822104 0.015098025
0.021939987 -0.020463025 -0.04663407 0.025636818 0.07217146 -0.030479657 -0.061933707 0.016136719
0.06961422 0.077786 -0.03628182 0.054800827 0.010813348 -0.0020492 0.03032213 -0.1882483
-0.18417932 -0.16048595 -0.3172219 -0.11179564 -0.0067022177 0.105101846 0.028557424 0.10883102
0.13688028 0.03949134 0.0785768 0.018902853 0.042257838 0.08873873 0.036656387 0.022597702
0.07344781 0.053969603 0.08869776 0.005066791 0.0702382 0.08840883 -0.061020184 0.08589805
-0.004848637 0.008707763 -0.045707572 0.09751269 0.11156837 -0.002110478 -0.0024887612 0.09940428
-0.06496648 0.044690076 0.027609782 0.04678077 -0.015044212 -0.029541146 -0.0506964 -0.05536176
-0.0014797489 0.023631614 -0.0017855401 0.019341378 0.08739804 0.0067177787 0.025183458 -0.05369455
0.09610269 0.08533286 0.072965324 0.038668662 0.07705789 -0.016260343 0.032564722 0.08766562
-0.016637325 -0.0763576 -0.015662722 0.07248568 0.062573716 0.086774714 0.029527683 0.09113037
0.08839567 0.11025905 0.06362952 -0.04275543 0.08163414 0.0042427084 0.08804841 -0.0074788206
0.06233109 0.05045301 0.059248924 0.048622195 -0.007931874 -0.040345352 0.09986998 -0.008043118
0.020609219 0.000779672 0.051089715 -0.0027034448 0.05243097 0.067127004 0.06702804 -0.03140585
-0.0029556672 -0.056737628 0.009558232 0.049734507 -0.001088535 -0.031547897 -0.055376 -0.034326874
0.032854643 -0.008229291 -0.02898781 -0.0034255707 0.0094596 -0.07795036 -0.08156121 -0.05524986
0.033692844 0.06370982 0.09143787 0.09081987 -0.0028111243 -0.020369707 -0.036790505 -0.076656274
-0.10458483 -0.10682133 -0.016277984 -0.07308435 -0.062225975 -0.07675302 -0.038803503 0.007942383
0.01619117 0.049453083 -0.21024776 0.011538372 0.061106693 -0.026298288 0.007113632 0.13612457
-0.06315256 0.025699269 0.036198843 0.08584021 -0.0016937519 -0.031280193 0.022323476 -0.038126193
-0.042168833 -0.079911254 -0.05835251 0.03273052 0.07543315 0.17482163 0.21154526 0.04466262
0.1165149 0.14701647 0.05768358 0.12764888 0.3242139 -0.06435627 0.027264012 0.017673766
-0.12606542 0.06872113 0.2541175 -0.106863484 0.11022724 0.15178873 -0.19040424 0.015760563
0.09665562 -0.18677752 -0.062085416 0.107932836 -0.035107248 0.026557967 0.17730005 -0.042687897
0.032191925 -0.08637051 -0.13214788 0.011202661 -0.05601956 -0.12826937 0.024234958 0.035394177
-0.09336976 0.054097086 -0.037254028 -0.11877241 0.05984601 0.0062770136 0.01826379 0.029488634
0.10393963 -0.037479132 0.016739745 -0.06991047 -0.0077456613 0.006852841 -0.0033406483 0.043888126
0.024824705 -0.039384495 -0.18560529 -0.011152304 0.08560349 -0.09644455 -0.024978254 0.06480285
-0.07754113 -0.008523664 0.06930569 0.019204305 0.0405565 0.04497206 -0.091497205 0.0050977664
0.09494056 -0.10723896 -0.07852442 0.052695803 0.060856976 0.11090676 -0.057504933 -0.085431226
00000000: 80b9 deb7 2062 77bd 244e f13c 80db fab7
00000010: 5631 1cbd 09c5 88bc abbc 293d d379 12bd
00000020: 1806 b43d 3478 8ebc d0ac ac3c d2e6 b53d
00000030: b871 823b dd1a 8f3d 15a5 a03d 01cd 753d
00000040: d879 8d3d 008b 26bd 4a44 b0bc 62da 5fbb
00000050: 2d34 b53b 9a0e a63d fea2 dd3d b55d 773c
00000060: 7dbb b33c 13a2 a7bc 5e03 3fbd 4e04 d23c
00000070: a1ce 933d 79b0 f9bc 33ae 7dbd 2731 843c
00000080: e691 8e3d 444e 9f3d 3f9c 14bd d576 603d
00000090: 782a 313c df4b 06bb 1e66 f83c 2ac4 40be
000000a0: 8199 3cbe 6e56 24be e96a a2be 1df5 e4bd
000000b0: 479e dbbb a33f d73d 42f1 e93c cce2 de3d
000000c0: 582a 0c3e acc1 213d e0ec a03d 28da 9a3c
000000d0: 8e16 2d3d a7bc b53d 0225 163d d11e b93c
000000e0: ce6b 963d 3b0f 5d3d 2ca7 b53d 5307 a63b
000000f0: 0cd9 8f3d b00f b53d 4df0 79bd 51eb af3d
00000100: 51e1 9ebb 01ab 0e3c dd37 3bbd bcb4 c73d
00000110: f57d e43d f24f 0abb 7c1a 23bb 7994 cb3d
00000120: 250d 85bd f10c 373d e92d e23c 319d 3f3d
00000130: 007c 76bc 4600 f2bc 07a7 4fbd 03c3 62bd
00000140: 22f4 c1ba 1697 c13c c908 eaba cf71 9e3c
00000150: befd b23d d020 dc3b 8a4d ce3c d1ee 5bbd
00000160: 7dd1 c43d ffc2 ae3d d86e 953d 0863 1e3d
00000170: 87d0 9d3d 6934 85bc 9662 053d 088a b33d
00000180: 004b 88bc 6061 9cbd 1c4f 80bc 5f73 943d
00000190: a626 803d f1b6 b13d 0ae4 f13c 8fa2 ba3d
000001a0: ca08 b53d 7fcf e13d 3250 823d 5120 2fbd
000001b0: cd2f a73d 6b06 8b3b ba52 b43d e510 f5bb
000001c0: e34e 7f3d d1a7 4e3d 00af 723d 1128 473d
000001d0: b1f4 01bc 2b41 25bd a288 cc3d 48c7 03bc
000001e0: aad4 a83c e762 4c3a 7343 513d 472c 31bb
000001f0: dbc1 563d e279 893d ff45 893d 6ca3 00bd
00000200: deb3 41bb b765 68bd 219a 1c3c 69b6 4b3d
00000210: 2cad 8eba 5e38 01bd f2d1 62bd 569a 0cbd
00000220: 9792 063d 26d4 06bc d877 edbc 8a7f 60bb
00000230: 70fc 1a3c 70a4 9fbd 9009 a7bd ad4d 62bd
00000240: 8201 0a3d 4b7a 823d c743 bb3d c5ff b93d
00000250: d73a 38bb 5fde a6bc a4b1 16bd f7fd 9cbd
00000260: 9230 d6bd 24c5 dabd 6859 85bc 3fad 95bd
00000270: aae0 7ebd b030 9dbd 6cf0 1ebd c520 023c
00000280: 58a3 843c 518f 4a3d 304b 57be 710b 3d3c
00000290: 034b 7a3d 826f d7bc 7819 e93b 3d64 0b3e
000002a0: 2156 81bd 4687 d23c 3d45 143d fecc af3d
000002b0: e200 deba a91f 00bd b9df b63c 362a 1cbd
000002c0: 3ab9 2cbd 83a8 a3bd 0b03 6fbd 7010 063d
000002d0: b27c 9a3d 7104 333e 529f 583e 27f0 363d
000002e0: 5d9f ee3d 7c8b 163e 9e45 6c3d 63b6 023e
000002f0: 5dff a53e 38cd 83bd c758 df3c 93c8 903c
00000300: 4b17 01be aabd 8c3d b01b 823e 3edb dabd
00000310: d2be e13d 816e 1b3e 54f9 42be 4c1c 813c
00000320: 62f3 c53d 9b42 3fbe 474d 7ebd e40b dd3d
00000330: 9ecc 0fbd 1890 d93c 258e 353e 81d9 2ebd
00000340: aedb 033d 06e3 b0bd c651 07be 5e8b 373c
00000350: c474 65bd 0c59 03be 6488 c63c 7cf9 103d
00000360: a538 bfbd e894 5d3d ae97 18bd f33e f3bd
00000370: 1721 753d 68af cd3b f29d 953c 2692 f13c
00000380: 4dde d43d b883 19bd ca21 893c 382d 8fbd
00000390: 51cf fdbb cc8d e03b c7ee 5abb 09c4 333d
000003a0: 2e5d cb3c a351 21bd 500f 3ebe 27b8 36bc
000003b0: e250 af3d b884 c5bd 329f ccbc 5bb7 843d
000003c0: e2cd 9ebd d7a6 0bbc 24f0 8d3d 5952 9d3c
000003d0: 931e 263d 9f34 383d e362 bbbd 2a0b a73b
000003e0: 3270 c23d 1aa0 dbbd 69d1 a0bd 8ed7 573d
000003f0: 2a45 793d 1523 e33d 4b8a 6bbd 91f6 aebd

left_cnn.4.bias f4 [32]
0.042554304 0.048028216 0.10052036 0.06369363 0.0731884 0.019970179 -0.017694445 0.038198933
0.08146295 -0.08151402 0.05360203 0.015825814 0.035393666 0.087420456 0.07825862 0.055825528
0.10926222 0.10888848 0.07765216 -0.024622178 -0.02951288 -0.040116753 0.024116788 0.07677905
0.08319681 0.041579757 0.04646539 0.076341964 0.018322188 -0.08358747 -0.031294104 0.09220716
00000000: 6c4d 2e3d 3cb9 443d 9edd cd3d ce71 823d
00000010: cde3 953d 8098 a33c f1f3 90bc 7c76 1c3d
00000020: 0cd6 a63d d3f0 a6bd cd8d 5b3d 23a5 813c
00000030: f3f8 103d 7f09 b33d 0e46 a03d 4fa9 643d
00000040: dfc4 df3d ec00 df3d 1808 9f3d 73b4 c9bc
00000050: ffc4 f1bc 7751 24bd 9290 c53c 563e 9d3d
00000060: 1763 aa3d 894f 2a3d 7e52 3e3d 2d59 9c3d
00000070: 6a18 963c e82f abbd 3f2e 00bd 1cd7 bc3d

left_cnn.6.weight f4 [64, 32, 3, 3]
-0.07145194 -0.048710577 -0.008155719 0.02378199 0.042765718 -0.057187036 -0.063239254 -0.00096402253
-0.03568842 -0.0032673716 -0.031838913 -0.005140385 0.031574048 0.04316868 -0.011567455 -0.0003187857
-0.04986478 -0.06446018 -0.05491405 -0.037860937 -0.06206563 -0.058868792 0.017019784 -0.03028923
-0.014179212 -0.03577055 -0.0449564 0.018069282 -0.0524816 0.014363112 0.034965962 0.047222964
0.040718347 0.051428396 0.0046757557 -0.029464033 -0.058071032 0.016663615 -0.060358834 -0.064763375
0.02070913 0.036706485 -0.046202656 0.026984422 0.029933065 -0.052941993 -0.0025168618 0.029526284
-0.007939132 -0.03152693 0.020760471 -0.04849424 -0.048106957 -0.02707294 0.024915272 -0.061227236
0.024182836 0.01621293 0.026992194 0.013750371 -0.004785371 0.018979436 -0.0511617 -0.021222856
0.039330777 -0.05352665 0.0099642705 -0.052313693 0.037276708 -0.056836598 -0.0023935442 0.0010989248
0.017150877 0.0009122254 0.006969434 -0.053666256 -0.012719265 -0.038386166 0.010243151 0.041741237
-0.017290168 0.009672737 0.026914563 0.008111794 -0.027626248 0.021034593 0.021766186 0.037369877
-0.054316886 0.04753536 -0.062413845 -0.013543453 0.029693417 -0.043815535 0.050890315 -0.03516656
-0.044642583 -0.026888598 -0.008216438 0.04621806 -0.013854714 0.01919443 -0.0036503605 -0.018427543
-0.04025023 -0.059549402 0.012824289 -0.06002581 -0.021864448 -0.011284221 -0.009748027 0.046489812
-0.03866147 -0.009929579 -0.0005367756 0.03406627 -0.056255024 0.034523956 0.04176086 -0.027085984
0.019065874 0.00029730625 -0.056672014 0.029164061 0.04218007 -0.0011864365 -0.056359716 -0.04145093
-0.017654711 0.039764214 0.0053014136 -0.029590925 0.028400633 0.03976519 -0.0033468683 -0.011212343
0.0186963 -0.054597035 0.021108065 0.050446466 -0.041661575 0.004354672 0.0319946 -0.031031929
0.0016859929 -0.043261945 0.050537977 -0.017535398 -0.0641363 0.042302493 -0.04085971 -0.047523953
-0.03243905 -0.008126503 0.027665876 -0.012118642 -0.021500485 0.017837338 -0.044675007 -0.026186623
-0.004954169 -0.016005935 0.020084403 -0.033532467 -0.04411062 -0.0051845885 -0.011006483 0.010486128
-0.0011753731 -0.06454472 0.03420612 0.016170165 0.046163756 0.021537596 0.014456115 0.008640066
0.053250197 -0.05331671 -0.03600768 -0.011917396 -0.055545248 -0.0010672609 0.025136005 -0.0040968857
0.031100692 -0.05546073 -0.027448181 -0.011012374 -0.00018428461 -0.01646487 -0.050658505 -0.028909432
-0.03462049 0.020244308 -0.06338977 -0.0039510294 0.010181814 0.01605461 -0.02007933 0.050192572
0.019323174 0.002956644 -0.0053514964 -0.010457512 -0.02047043 -0.020807933 -0.032844696 0.04215244
-0.00078566704 0.008855444 -0.04218177 -0.02104536 -0.020483222 -0.06263123 -0.016008977 -0.0240375
-0.013786495 0.024679074 -0.010986814 -0.01833143 -0.054490548 0.02431504 0.0321936 0.015182706
-0.03215674 -0.06071012 -0.014291557 0.0055512195 0.016970633 -0.0075344085 0.02625526 0.018283486
-0.059692714 0.0030023297 -0.014547593 0.028285636 0.04210749 0.012225253 -0.066470325 0.0019513868
0.050471604 -0.05260559 -0.0140866 0.0213708 -0.029841578 0.043125656 -0.057249535 -0.03901834
-0.03397469 -0.008398803 0.010468468 -0.06421306 -0.020238228 -0.015020876 0.03740749 -0.050801925
00000000: 6555 92bd be84 47bd 919f 05bc 73d2 c23c
00000010: 1b2b 2f3d f43c 6abd 9583 81bd 75b6 7cba
00000020: 052e 12bd 6621 56bb 8569 02bd ad70 a8bb
00000030: ca53 013d a4d1 303d 6c85 3dbc b122 a7b9
00000040: 033f 4cbd b303 84bd 8eed 60bd 1214 1bbd
00000050: 8838 7ebd 6720 71bd 136d 8b3c 1f21 f8bc
00000060: ed4f 68bc 2484 12bd 3424 38bd 0806 943c
00000070: f2f6 56bd 4253 6b3c 7838 0f3d de6c 413d
00000080: 48c8 263d 95a6 523d 1537 993b 8e5e f1bc
00000090: e4db 6dbd 2282 883c d33a 77bd a9a2 84bd
000000a0: 32a6 a93c 8a59 163d ff3e 3dbd 6f0e dd3c
000000b0: 3036 f53c b4d9 58bd eff1 24bb 1be1 f13c
000000c0: 2213 02bc 6222 01bd dd11 aa3c e5a1 46bd
000000d0: cd0b 45bd 12c8 ddbc 1d1b cc3c 69c9 7abd
000000e0: 151b c63c fbd0 843c bc1e dd3c 3c49 613c
000000f0: 9ace 9cbb c37a 9b3c ee8e 51bd 8edb adbc
00000100: 4f19 213d c33e 5bbd 2e41 233c e246 56bd
00000110: 76af 183d 7ecd 68bd 02dd 1cbb cc09 903a
00000120: ff7f 8c3c 6922 6f3a da5f e43b 26d1 5bbd
00000130: 7764 50bc d03a 1dbd e4d2 273c dcf8 2a3d
00000140: 1ca4 8dbc 667a 1e3c ee7b dc3c 54e7 043c
00000150: 7150 e2bc bd50 ac3c 004f b23c 2811 193d
00000160: 627b 5ebd 70b4 423d a9a5 7fbd 5ce5 5dbc
00000170: 9c3f f33c eb77 33bd 5d72 503d d00a 10bd
00000180: 24db 36bd 7a45 dcbc 3d9e 06bc 264f 3d3d
00000190: e2fe 62bc a33d 9d3c e33a 6fbb 5cf5 96bc
000001a0: 6ddd 24bd 13ea 73bd f71c 523c a0dd 75bd
000001b0: 121d b3bc 74e1 38bc 30b6 1fbc 1a6c 3e3d
000001c0: 7d5b 1ebd acaf 22bc 67b6 0cba 1389 0b3d
000001d0: ab6b 66bd fe68 0d3d 6f0d 2b3d 6de3 ddbc
000001e0: 0930 9c3c c5df 9b39 ea20 68bd 78e9 ee3c
000001f0: 02c5 2c3d 3482 9bba 72d9 66bd 73c8 29bd
00000200: 9da0 90bc cddf 223d 7bb7 ad3b ab68 f2bc
00000210: 72a8 e83c d3e0 223d 2257 5bbb fab3 37bc
00000220: fc28 993c 24a1 5fbd d2ea ac3c f4a0 4e3d
00000230: 54a5 2abd a3b1 8e3b c50c 033d ac36 febc
00000240: 89fc dc3a 7033 31bd e900 4f3d 65a6 8fbc
00000250: e459 83bd 6145 2d3d 835c 27bd 7aa8 42bd
00000260: cfde 04bd 0625 05bc 8ca3 e23c 458d 46bc
00000270: c921 b0bc 9c1f 923c 24fd 36bd 5485 d6bc
00000280: 9556 a2bb e11e 83bc 0c88 a43c 5759 09bd
00000290: 56ad 34bd 7be3 a9bb 8954 34bc 02ce 2b3c
000002a0: fa0e 9aba 0630 84bd b71b 0c3d 4b77 843c
000002b0: 3516 3d3d 9d6f b03c 57d9 6c3c 108f 0d3c
000002c0: e11c 5a3d 9f62 5abd ca7c 13bd 2f41 43bc
000002d0: 6a83 63bd 55e3 8bba 06ea cd3c 2b3f 86bb
000002e0: e1c6 fe3c ca2a 63bd 02db e0bc 3f6d 34bc
000002f0: 863c 41b9 56e1 86bc 4b7f 4fbd 79d3 ecbc
00000300: 37ce 0dbd 64d7 a53c 7fd2 81bd a377 81bb
00000310: a0d1 263c f584 833c 687d a4bc ba96 4d3d
00000320: a24b 9e3c 41c4 413b 9b5b afbb fc55 2bbc
00000330: 9ab1 a7bc 6675 aabc 2988 06bd 09a8 2c3d
00000340: 39f5 4dba 6d16 113c cbc6 2cbd 5267 acbc
00000350: 6ecc a7bc cd44 80bd 4225 83bc 4bea c4bc
00000360: c0e0 61bc c52b ca3c 0a02 34bc cc2b 96bc
00000370: 7b31 5fbd 5630 c73c 70dd 033d e2c0 783c
00000380: c9b6 03bd 2dab 78bd 2227 6abc 01e7 b53b
00000390: ff05 8b3c 33e3 f6bb 4515 d73c 40c7 953c
000003a0: 5980 74bd bcc2 443b 0759 6ebc 47b7 e73c
000003b0: e778 2c3d 6d4c 483c 9821 88bd adc5 ff3a
000003c0: 50bb 4e3d f678 57bd 7ccb 66bc d111 af3c
000003d0: 5376 f4bc 87a4 303d 7d7e 6abd b2d1 1fbd
000003e0: 0b29 0bbd 229b 09bc f083 2b3c 2382 83bd
000003f0: a4ca a5bc 1f1a 76bc 9938 193d ae15 50bd

left_cnn.6.bias f4 [64]
-0.051851127 0.030327749 -0.040715717 0.08385002 -0.008882821 0.08192698 0.041728552 0.08672261
0.0065281903 0.030625368 0.03815262 -0.0026748748 0.057857897 0.085587375 0.0684268 0.08857528
0.066480026 0.03221944 0.0029906696 0.0006615989 -0.024867903 0.043685053 0.042568542 0.07503968
0.019504951 0.076729044 0.017964963 0.017496595 0.037539136 0.06485875 -0.0006521292 0.03475649
-0.032632172 0.042024583 0.050489254 -0.011324643 -0.047512814 0.02876686 -0.028223056 0.0060899504
-0.014850092 -0.04170822 0.06446653 0.08197602 0.04693998 -0.0009387291 0.0919443 0.019445537
-0.003902879 0.0639197 0.03689578 0.033485837 0.036652 -0.05255531 -0.02016287 0.041729786
0.03683549 0.03567282 -0.0039007636 -0.06438206 0.023853108 0.028925428 0.08530953 0.07116825
00000000: d961 54bd e671 f83c 86c5 26bd 8fb9 ab3d
00000010: 4089 11bc 55c9 a73d 8feb 2a3d a09b b13d
00000020: 6eea d53b 0de2 fa3c ec45 1c3d f44c 2fbb
00000030: 67fc 6c3d 6f48 af3d 5a23 8c3d f566 b53d
00000040: ae26 883d 88f8 033d 1cff 433b 276f 2d3a
00000050: c6b7 cbbc 19ef 323d 5a5c 2e3d 67ae 993d
00000060: d9c8 9f3c 1e24 9d3d 422b 933c 0555 8f3c
00000070: a3c2 193d aad4 843d a6f3 2aba d25c 0e3d
00000080: 50a9 05bd f821 2c3d d2cd 4e3d ff8a 39bc
00000090: cc9c 42bd 7aa8 eb3c 0a34 e7bc 358e c73b
000000a0: cd4d 73bc 3dd6 2abd 0707 843d 0be3 a73d
000000b0: 2344 403d 0b15 76ba 4b4d bc3d 3f4c 9f3c
000000c0: 72c7 7fbb 55e8 823d 0820 173d 7228 093d
000000d0: 6820 163d 3d44 57bd 9a2c a5bc daec 2a3d
000000e0: d0e0 163d aa1d 123d f4a3 7fbb beda 83bd
000000f0: 9867 c33c 05f5 ec3c c3b6 ae3d a9c0 913d

left_cnn.8.weight f4 [64, 64, 3, 3]
-0.019831622 0.03612125 0.032579683 -0.0070429794 0.046852868 0.041935828 0.042780653 0.017353516
-0.04992593 0.0778295 0.04612312 -0.069963925 0.011454447 0.014230772 0.05172319 0.10270015
0.060822472 -0.06143219 0.012346544 0.022142474 0.02583799 0.033682507 0.021247236 0.010272976
-0.026871653 0.0010687285 0.0027796216 -0.017567014 0.020649638 -0.057791468 0.083014265 0.023337556
-0.022264164 -0.044750057 0.053861655 0.022732897 0.013460833 -0.08811697 0.0662281 -0.08284986
-0.0019159452 -0.123683244 -0.06763678 -0.05167835 -0.1226908 -0.01294758 -0.048884284 0.023848478
0.03690434 0.009404917 -0.08212471 0.033559024 0.04731978 0.0700346 0.051187772 0.01890733
0.054570463 -0.0041150544 0.0036482317 -0.03165078 -0.05124515 -0.017395481 0.06091163 0.025528062
-0.013724119 -0.04257765 -0.019281413 0.07500856 -0.039418273 0.005798129 0.05024035 0.04590003
0.0063276077 -0.019654278 0.039498433 0.040471412 0.0012475064 -0.026414631 0.036058232 0.059568334
0.03973623 0.052438222 0.106289506 0.075577125 0.072511174 0.067319155 -0.052933306 -0.14756238
-0.15668288 -0.20275931 0.017279623 -0.03669601 -0.002158615 -0.01821376 0.031890497 -0.01076618
-0.026274355 0.025440475 0.010768557 0.032646064 -0.0074296305 -0.02393522 0.01287121 0.016591853
0.020379057 0.036572307 0.04036457 0.032898244 0.03892637 -0.017128846 0.026339693 0.022382315
0.022650238 -0.0074667963 0.045242295 -0.022488743 0.0004766726 0.020423548 0.021045247 -0.015012363
0.011223304 0.0014990027 -0.004121519 -0.012531279 0.050866388 0.06887171 -0.0047518457 -0.004267414
-0.021026492 -0.024849694 -0.0072542178 -0.025567262 0.0152997915 0.035198748 0.009124656 -0.0054653697
-0.06604397 0.03397238 0.036839128 0.04937438 -0.033559293 0.061944097 0.06250304 0.021949025
-0.011244483 -0.030354345 -0.027683917 -0.0017783146 0.051497757 -0.053111587 0.028904816 -0.017823141
0.017012632 0.025278896 -0.04972927 -0.0033540446 -0.037024718 0.04688312 -0.047761396 -0.016623862
0.038151253 0.048634958 0.05100008 0.008055673 -0.0636502 -0.04144962 0.013655763 0.0005087936
0.014697115 -0.10328925 -0.11161756 -0.0011814273 -0.064407796 0.0013226554 -0.009960234 0.033809073
0.024219163 0.047385346 0.020454308 0.0714514 0.005835101 0.011523247 -0.034322307 -0.026965326
0.029074034 -0.012291576 0.0015826296 -0.017958924 -0.02261366 0.038305916 -0.040938187 0.02339041
0.02323784 -0.048731785 -0.060073093 0.042663455 0.049844228 0.08881227 0.029371236 0.017177254
-0.0021824003 0.0063664634 -0.009309881 0.021207385 0.031673998 0.056722075 0.030943764 0.0048037167
-0.03746467 -0.032083314 -0.046882022 0.034928277 0.038925376 -0.004097226 0.027149515 0.04319546
0.03649706 0.024091857 0.024403976 -0.012853226 0.024018692 -0.0073265587 -0.0399409 -0.00025136856
0.06381031 -3.0377414e-05 -0.022735814 0.0057080872 0.049108144 0.0045949104 -0.04742861 0.012317729
0.009813018 0.04188885 0.0067887073 -0.07087576 -0.084035754 -0.026212193 0.025292335 -0.004919295
0.042616136 0.054963827 0.038723037 0.027700655 -0.048151016 -0.004693432 -0.02476966 0.050541643
0.02082889 0.0070187342 0.031239063 -0.0132464925 -0.020936346 -0.03229994 -0.009333293 0.009194512
00000000: ed75 a2bc e0f3 133d 4672 053d cbc8 e6bb
00000010: cbe8 3f3d e7c4 2b3d c43a 2f3d f628 8e3c
00000020: 227f 4cbd 1365 9f3d 99eb 3c3d 3f49 8fbd
00000030: 6fab 3b3c 2f28 693c b2db 533d 7554 d23d
00000040: fc20 793d 52a0 7bbd 2949 4a3c 2264 b53c
00000050: 31aa d33c abf6 093d af0e ae3c fc4f 283c
00000060: f121 dcbc 9414 8c3a 502a 363b b3e8 8fbc
00000070: 6e29 a93c bfb6 6cbd 6203 aa3d 672e bf3c
00000080: 5663 b6bc d64b 37bd 0a9e 5c3d 573a ba3c
00000090: d38a 5c3c ac76 b4bd 99a2 873d 30ad a9bd
000000a0: 7420 fbba a44d fdbd 2785 8abd adac 53bd
000000b0: 5045 fbbd 1622 54bc e33a 48bd e25d c33c
000000c0: 0129 173d 1517 1a3c 0031 a8bd 3075 093d
000000d0: 63d2 413d 4d6e 8f3d 45aa 513d 8ce3 9a3c
000000e0: 4785 5f3d 94d7 86bb 2c17 6f3b 40a4 01bd
000000f0: 6fe6 51bd f880 8ebc 797e 793d 3a20 d13c
00000100: 21db 60bc e765 2ebd 0ef4 9dbc 179e 993d
00000110: 0e75 21bd 3bfe bd3b d3c8 4d3d ab01 3c3d
00000120: d257 cf3b 0202 a1bc 1cc9 213d 5ac5 253d
00000130: 5e83 a33a 7f63 d8bc ccb1 133d edfd 733d
00000140: 75c2 223d 76c9 563d 50ae d93d 2ec8 9a3d
00000150: bd80 943d a0de 893d 98d0 58bd 981a 17be
00000160: 7a71 20be 23a0 4fbe ff8d 8d3c 8e4e 16bd
00000170: 8d77 0dbb 0635 95bc 9c9f 023d a264 30bc
00000180: 513d d7bc 8b68 d03c 9a6e 303c e1b7 053d
00000190: 4274 f3bb cb13 c4bc c5e1 523c a3eb 873c
000001a0: fbf1 a63c d8cc 153d 5255 253d 4fc0 063d
000001b0: 4271 1f3d cb51 8cbc 57c6 d73c 1e5b b73c
000001c0: fe8c b93c 07ac f4bb fc4f 393d 503a b8bc
000001d0: eae9 f939 494f a73c 1567 ac3c 6af6 75bc
000001e0: f3e1 373c 2f7a c43a cf0d 87bb fe4f 4dbc
000001f0: 4659 503d 9c0c 8d3d 5fb5 9bbb aad5 8bbb
00000200: c03f acbc 9691 cbbc cab4 edbb 6f72 d1bc
00000210: faab 7a3c 902c 103d 957f 153c d816 b3bb
00000220: 1042 87bd 9f26 0b3d a0e4 163d ca3c 4a3d
00000230: 7875 09bd 18b9 7d3d 9801 803d 71ce b33c
00000240: c83a 38bc ada9 f8bc 62c9 e2bc 5616 e9ba
00000250: 50ef 523d 898b 59bd cbc9 ec3c d601 92bc
00000260: 135e 8b3c b015 cf3c ebb0 4bbd 88cf 5bbb
00000270: 3ba7 17bd 8408 403d 74a1 43bd c42e 88bc
00000280: 7d44 1c3d 7335 473d 76e5 503d f1fb 033c
00000290: 095b 82bd 14c7 29bd 6cbc 5f3c 8f60 053a
000002a0: 2bcc 703c 5089 d3bd bf97 e4bd 1fda 9aba
000002b0: 3ce8 83bd f35c ad3a 4030 23bc 627b 0a3d
000002c0: 4467 c63c 2317 423d cb8f a73c 1d55 923d
000002d0: 6034 bf3b 00cc 3c3c 8c95 0cbd 63e6 dcbc
000002e0: ab2c ee3c 9b62 49bc 3d70 cf3a 981e 93bc
000002f0: 4840 b9bc aae6 1c3d cdae 27bd 3f9d bf3c
00000300: 485d be3c fb9a 47bd 340f 76bd e0bf 2e3d
00000310: 7629 4c3d 35e3 b53d f29b f03c 50b7 8c3c
00000320: 9a06 0fbb c49d d03b 7988 18bc 1cbb ad3c
00000330: 98bc 013d 6855 683d c77d fd3c 7f68 9d3b
00000340: 8e74 19bd cb69 03bd 5d07 40bd f410 0f3d
00000350: 3770 1f3d 0642 86bb a968 de3c b9ed 303d
00000360: f17d 153d 495c c53c d9ea c73c 5696 52bc
00000370: d9c2 c43c a113 f0bb 1299 23bd 1eca 83b9
00000380: fbae 823d 00d3 feb7 7540 babc e80a bb3b
00000390: 9f25 493d e790 963b 8144 42bd 4dd0 493c
000003a0: c8c6 203c a593 2b3d ce73 de3b 4f27 91bd
000003b0: f01a acbd f4ba d6bc df31 cf3c 0a32 a1bb
000003c0: 428e 2e3d c021 613d 0c9c 1e3d 7cec e23c
000003d0: 003a 45bd 5ccb 99bb bee9 cabc c104 4f3d
000003e0: 59a1 aa3c 69fd e53b 10e9 ff3c d107 59bc
000003f0: b382 abbc f14c 04bd abea 18bc 94a4 163c

left_cnn.8.bias f4 [64]
0.070729926 -0.04353764 0.047714695 0.01247476 0.029462004 -0.030737126 0.03398253 0.032336902
-0.032704968 0.024767386 0.024320027 0.007164021 0.09224974 -0.0202073 0.0032838362 0.011042669
-0.046398483 0.029379921 0.061188903 -0.023370167 -0.01935916 -0.043967508 -0.0031651936 0.021724587
0.071591295 0.018387455 -0.054632545 0.037952654 -0.031060666 -0.007990164 -0.004206899 0.03527626
0.029746113 -0.008579396 -0.05674861 0.016374428 0.061042845 0.0654964 0.06434503 0.026345214
0.041510917 0.06191057 0.005356816 0.067092165 -0.005472574 -0.03602685 -0.004474605 0.029177047
0.022515506 -0.027347593 -0.016326807 0.026737662 0.011769046 0.0012765962 0.08294035 -0.0058380174
-0.042484876 0.070829146 -0.026595313 -0.04200848 0.057685655 0.0189975 -0.020510139 0.0115581695
00000000: dada 903d 8654 32bd 7c70 433d f062 4c3c
00000010: 4d5a f13c 6dcc fbbc 4431 0b3d b373 043d
00000020: a5f5 05bd f9e4 ca3c cb3a c73c 2ac0 ea3b
00000030: 6fed bc3d c889 a5bc a135 573b 50ec 343c
00000040: 560c 3ebd 29ae f03c 37a1 7a3d cb72 bfbc
00000050: 1a97 9ebc 4617 34bd 236f 4fbb c3f7 b13c
00000060: 759e 923d 4aa1 963c 60c6 5fbd 3e74 1b3d
00000070: f072 febc 2de9 02bc 07da 89bb d77d 103d
00000080: 1fae f33c 9890 0cbc 3b71 68bd aa23 863c
00000090: 1008 7a3d fa22 863d 54c7 833d ebd1 d73c
000000a0: 5a07 2a3d f095 7d3d 3b88 af3b 9e67 893d
000000b0: 4753 b3bb e490 13bd b59f 92bb b404 ef3c
000000c0: 7072 b83c 0f08 e0bc ccbf 85bc f108 db3c
000000d0: f5d2 403c 7653 a73a a1dc a93d d74c bfbb
000000e0: 9f04 2ebd df0e 913d 6ade d9bc 1511 2cbd
000000f0: cb47 6c3d a5a0 9b3c e104 a8bc 7a5e 3d3c

left_classification.0.weight f4 [32, 384]
0.009639849 0.021687338 -0.061030757 -0.06183806 0.0040575815 -0.0032656142 -0.0031125157 -0.014175174
-0.029562496 -0.0030204803 -0.020110264 -0.023853097 0.00491526 0.005872517 -0.007853552 0.010662181
0.008069402 -0.0682986 -0.012624392 -0.04116957 -0.057182867 -0.010938748 0.026533203 0.014760646
-0.025327543 0.034364477 0.004089191 -0.06164246 -0.039641846 -0.061525587 0.03257378 -0.018234417
0.045492038 -0.044966187 0.032503594 0.038165998 -0.0003105464 -0.056922823 -0.040790983 0.02557812
-0.008440515 -0.0041559082 0.021596458 -0.03714439 0.0284647 -0.07224024 -0.10876422 -0.048501942
-0.01466972 -0.02745334 -0.0057606385 -0.0130835315 -0.022906804 0.034623012 0.014940071 0.019905113
-1.27465155e-05 0.04330945 0.06470301 -0.0021223899 0.008026822 0.006401211 0.008662833 0.03474493
0.008394351 -0.021580571 -0.030310405 0.017164672 -0.046626348 0.029740514 0.035633128 -0.029377002
-0.044290707 0.035037786 -0.041168153 -0.062497273 -0.034876708 -0.021002447 -0.02587824 0.047624495
0.01924016 -0.046173073 -0.026258511 0.049989633 0.0425727 0.006028836 -0.045888614 -0.06935241
-0.024030946 -0.05043862 -0.046999663 -0.055832673 -0.049651127 -0.039117556 -0.04590305 -0.06743598
0.007620189 -0.023934998 0.020157509 -0.01714005 -0.015507583 -0.030253416 0.022572447 -0.05428554
-0.054322816 -0.037381504 -0.026617456 -0.013199818 0.003992733 -0.040131524 -0.02549352 0.012781859
0.04550669 -0.043663166 0.011597436 -0.02799354 -0.024011403 -0.034356665 0.024387911 -0.007137212
-0.043633066 -4.7670823e-05 0.024974076 -0.016111093 0.008295826 -0.01353962 -0.04739008 -0.019519286
-0.009782696 -0.04409885 -0.0311396 -0.004598527 0.0313579 -0.044116184 -0.006423264 -0.025922643
0.0016215002 0.044859976 -0.04612501 -0.02699397 0.035547685 0.041468147 0.018131077 0.00095832814
-0.022760393 -0.029088158 -0.04292351 -0.013295272 0.005756848 0.023113772 0.0127165085 0.0055055385
-0.069078326 0.036143746 -0.008645829 0.03358604 0.0059391856 -0.036162335 0.0035541626 0.04367846
-0.008377408 -0.024573106 -0.022600314 -0.022217246 -0.004571595 0.049685225 0.022506649 -0.05670684
0.027571838 -0.034669563 0.02780145 0.014235051 0.030881178 -0.042638954 -0.00391168 0.031202732
-0.04123738 0.0048321774 0.019487482 -0.030562213 0.010405532 0.032022674 0.027961332 -0.042794995
-0.0446351 -0.00094619964 -0.03477606 -0.031810593 0.020956857 -0.0364596 -0.03220846 0.04385375
0.015008816 0.017340153 -0.01478486 -0.02342202 -0.038026903 0.028283363 -0.009931752 0.050690442
0.019731672 0.010814968 0.022477446 0.049390852 0.02852769 0.015747804 0.040983927 0.043227118
0.045304593 0.048150234 0.040422417 -0.012103394 0.020999586 -0.0065898 -0.013334959 -0.04622493
-0.07364683 -0.008593161 -0.055351812 -0.031884134 -0.06946058 -0.06739291 -0.053144492 0.013719954
-0.045263164 -0.018946106 -0.061132632 0.025424547 -0.015857376 0.024967078 -0.036938075 -0.03454003
0.03778262 0.06599935 0.002197338 -0.057902984 -0.0625858 -0.059504867 -0.022740642 0.026852438
-0.05146011 0.0059648673 0.016222736 -0.03213496 0.002822079 -0.05631071 -0.029815786 0.044950467
-0.0151949655 -0.03541305 0.005633114 -0.058552235 0.041230712 0.03337781 0.021609483 -0.019395193
00000000: 75f0 1d3c a5a9 b13c 63fb 79bd e849 7dbd
00000010: 76f5 843b ea03 56bb 59fb 4bbb fd3e 68bc
00000020: 0c2d f2bc 40f3 45bb 48be a4bc 9267 c3bc
00000030: 3010 a13b 3e6e c03b 2fac 00bc 6eb0 2e3c
00000040: 8635 043c 23e0 8bbd 8ad6 4ebc 6ca1 28bd
00000050: 9538 6abd 6f38 33bc 295c d93c a3d6 713c
00000060: b57b cfbc c4c1 0c3d 9ffe 853b ce7c 7cbd
00000070: 7d5f 22bd 4102 7cbd 156c 053d 5860 95bc
00000080: dc55 3a3d 772e 38bd 7d22 053d f353 1c3d
00000090: d5d0 a2b9 e827 69bd 7214 27bd 3589 d13c
000000a0: 164a 0abc 492e 88bb 0eeb b03c b724 18bd
000000b0: cd2e e93c b1f2 93bd c6bf debd f9a9 46bd
000000c0: 4459 70bc d4e5 e0bc bdc3 bcbb 4f5c 56bc
000000d0: 0da7 bbbc dcd0 0d3d 33c7 743c 0c10 a33c
000000e0: ded9 55b7 4065 313d 0383 843d cb17 0bbb
000000f0: ee82 033c 40c1 d13b 8eee 0d3c b350 0e3d
00000100: 7688 093c bdc9 b0bc 874d f8bc ed9c 8c3c
00000110: 45fb 3ebd 61a2 f33c 0bf4 113d 0aa8 f0bc
00000120: 2c6a 35bd c883 0f3d f09f 28bd 24fd 7fbd
00000130: e1da 0ebd 530d acbc 9afe d3bc e711 433d
00000140: 8a9d 9d3c fa1f 3dbd 171c d7bc eec1 4c3d
00000150: b660 2e3d 8b8d c53b b3f5 3bbd a308 8ebd
00000160: 8cdc c4bc ba98 4ebd b882 40bd cdb0 64bd
00000170: fb5e 4bbd bb39 20bd d604 3cbd e01b 8abd
00000180: c7b2 f93b 5413 c4bc 5c21 a53c 4a69 8cbc
00000190: 8413 7ebc 03d6 f7bc dae9 b83c 845a 5ebd
000001a0: 9a81 5ebd 591d 19bd da0c dabc 0d44 58bc
000001b0: 79d5 823b f460 24bd c9d7 d0bc 016b 513c
000001c0: 3965 3a3d 26d8 32bd 2c03 3e3c b552 e5bc
000001d0: 90b3 c4bc 93b9 0cbd 28c9 c73c 46df e9bb
000001e0: 96b8 32bd 28f2 47b8 6f96 cc3c 69fb 83bc
000001f0: 37eb 073c 48d5 5dbc 1a1c 42bd e9e6 9fbc
00000200: 9a47 20bc ffa0 34bd 7918 ffbc 3eaf 96bb
00000210: 2471 003d 2cb3 34bd 3e7a d2bb b95b d4bc
00000220: 8588 d43a 18bf 373d 94ed 3cbd 7522 ddbc
00000230: 739a 113d 81da 293d a087 943c 5038 7b3a
00000240: 0174 babc 4a4a eebc 90d0 2fbd 6ad4 59bc
00000250: f1a3 bc3b 1859 bd3c e758 503c ce67 b43b
00000260: f078 8dbd 770b 143d 3ca7 0dbc 8491 093d
00000270: 809d c23b f51e 14bd f4ec 683b 2fe8 323d
00000280: 6541 09bc 8a4d c9bc 4b24 b9bc f100 b6bc
00000290: 52cd 95bb bc82 4b3d dd5f b83c 6e45 68bd
000002a0: 56de e13c ac01 0ebd debf e33c 223a 693c
000002b0: 86fa fc3c 2fa6 2ebd 8d2d 80bb df9c ff3c
000002c0: 87e8 28bd 3e57 9e3b 36a4 9f3c 9b5d fabc
000002d0: f77b 2a3c 352a 033d 2a0f e53c ce49 2fbd
000002e0: 4bd3 36bd 620a 78ba 5871 0ebd d34b 02bd
000002f0: b7ad ab3c a956 15bd 05ed 03bd fd9f 333d
00000300: 89e7 753c f00c 8e3c 333c 72bc 89df bfbc
00000310: 19c2 1bbd 83b2 e73c cab8 22bc c8a0 4f3d
00000320: 51a4 a13c 4331 313c 9f22 b83c 104e 4a3d
00000330: e7b2 e93c 8a01 813c c3de 273d eb0e 313d
00000340: 4f91 393d 2e39 453d fa91 253d 504d 46bc
00000350: 5307 ac3c 40ef d7bb df7a 5abc 5a56 3dbd
00000360: 26d4 96bd 54ca 0cbc 95b8 62bd f098 02bd
00000370: 5941 8ebd 4b05 8abd 0aae 59bd a8c9 603c
00000380: de65 39bd dd34 9bbc 3666 7abd 2447 d03c
00000390: 54e7 81bc c287 cc3c 614c 17bd d979 0dbd
000003a0: f3c1 1a3d ab2a 873d 3701 103b ae2b 6dbd
000003b0: fc2c 80bd 60bb 73bd 954a babc a5f9 db3c
000003c0: d6c7 52bd ef74 c33b 8be5 843c f39f 03bd
000003d0: a1f2 383b 0fa6 66bd 3c40 f4bc fb1d 383d
000003e0: 4ef4 78bc 460d 11bd fc95 b83b 78d4 6fbd
000003f0: 89e1 283d 2cb7 083d 5f06 b13c abe2 9ebc

left_classification.0.bias f4 [32]
0.025461392 -0.0066170893 -0.06495677 -0.027146727 -0.06605661 0.028507395 0.014597218 -0.03451889
-0.03448608 0.04677831 0.04215656 -0.05517326 -0.022804419 -0.047279224 -0.06308818 -0.011090295
0.059429906 0.0020007282 0.046334352 0.0840251 -0.03243988 0.030548219 -0.02860555 0.079869404
-0.029065207 -0.029399302 0.008198526 -0.020768268 0.032325305 0.031749334 0.034876917 -0.016567916
00000000: 6994 d03c 2bd4 d8bb 0e08 85bd d062 debc
00000010: b048 87bd 5788 e93c 2b29 6f3c ae63 0dbd
00000020: 4741 0dbd 9d9a 3f3d 5bac 2c3d 5bfd 61bd
00000030: 55d0 babc dca7 41bd 6034 81bd 12b4 35bc
00000040: c66c 733d a61e 033b 17c9 3d3d 5a15 ac3d
00000050: aedf 04bd 4240 fa3c 3056 eabc 9292 a33d
00000060: 281a eebc ced6 f0bc 1c53 063c 3722 aabc
00000070: 8a67 043d 970b 023d 19db 0e3d 70b9 87bc

left_classification.2.weight f4 [16, 32]
0.049936853 -0.14615658 0.044691738 -0.03598633 -0.17009819 0.1434357 -0.055636775 0.07905947
0.0153289 0.03748634 0.013824445 0.10297684 0.16275723 0.015966926 -0.12744358 -0.118789
0.18657896 -0.045038562 0.110300116 -0.14948443 -0.16338524 -0.01966094 0.12688802 0.026338018
0.0321844 0.008211639 0.12367579 0.16747996 -0.13250434 -0.12255739 0.0025412918 0.11967043
0.032276124 0.18962753 -0.1404331 -0.0922704 -0.13006811 -0.09978319 -0.17231393 -0.17672107
0.086015515 0.054271773 0.084982 0.097492516 0.18304013 -0.13293028 -0.12537728 0.18981582
-0.19024171 -0.07236111 0.050285056 -0.0022590465 0.1075345 0.07204665 0.025664186 0.18301848
-0.14079504 0.16176476 0.061565153 -0.0035634045 0.076990716 -0.06524728 -0.21781375 0.06461754
0.049557142 -0.1433678 -0.071329474 -0.03876117 -0.097841166 -0.20390543 -0.043173403 0.10919901
0.10619558 0.045260463 -0.0924158 0.07814456 -0.0445728 0.055345044 0.14540927 0.13480458
0.016146544 0.11477927 -0.09070814 -0.055093594 -0.13310534 -0.07395003 0.121505 -0.10989737
0.09622612 -0.09237261 -0.19235845 -0.1112111 0.13244073 -0.07026803 -0.31908575 0.09108705
0.11285768 -0.0060788323 -0.16997887 0.002154391 -0.015054974 0.17501885 -0.25165173 0.12562916
-0.066217504 0.015745018 0.15506807 0.04222378 -0.11434997 0.0040053357 -0.26935074 0.04875839
0.23584715 -0.15071146 0.195405 0.11228033 -0.11677755 0.014621865 0.1401768 0.13678764
0.22659035 0.15882652 0.050653256 -0.14363253 0.05642877 -0.0755818 0.015557397 -0.07670726
-0.14053911 0.12559316 -0.07150092 0.11963576 0.064189784 0.12323051 -0.19124885 0.17703521
-0.11471528 -0.033477124 0.050180998 0.10687836 -0.12656888 -0.046229508 -0.13134396 -0.055611014
-0.06940016 0.15361916 0.0719867 0.11278185 -0.044844702 0.017648412 -0.088131286 -0.03592886
-0.13902597 0.049310282 -0.09116747 -0.064293504 0.1675626 -0.16156676 -0.16034602 0.11649466
0.045585245 0.072213754 0.06540832 -0.04316939 -0.13510501 -0.07399703 -0.032659236 -0.1452513
-0.038253773 -0.13711296 0.13151722 0.13785754 0.09209076 0.12406807 -0.04355473 0.16745277
0.15720157 0.029068677 -0.074134566 0.20072994 -0.12117466 0.14098732 -0.086044304 0.11670579
-0.036958776 -0.11183232 0.10593421 0.14316395 -0.002852125 0.039163433 0.011973657 0.12864295
0.032764528 -0.003636947 0.06570542 0.009606357 -0.10694154 0.05484156 -0.1585787 0.11504744
-0.07617331 -0.051033888 -0.0506727 0.13275886 -0.0025226942 -0.008932328 -0.14268969 0.053772986
0.10909647 0.113326006 0.17918257 -0.17744401 -0.04600063 0.16383746 -0.13459466 0.1560209
0.13145824 -0.11980477 0.002495697 -0.026196193 -0.026524523 -0.024435926 0.09029497 0.06684457
-0.17360377 -0.114776455 0.01540954 0.004070567 -0.16471654 0.12315927 -0.024694633 0.024891939
-0.0919087 0.11484732 0.09350421 0.14725263 0.14319332 -0.10178163 -0.06904913 -0.1513656
-0.16626625 -0.10825649 0.05023712 -0.1263913 -0.040580817 -0.15670937 -0.07906523 0.14604336
0.03613441 -0.12560484 0.122086875 -0.09049509 -0.06352236 0.14856489 0.113241926 0.16385856
00000000: 968a 4c3d 12aa 15be af0e 373d 6766 13bd
00000010: 382e 2ebe cfe0 123e 63e3 63bd eee9 a13d
00000020: 1126 7b3c 478b 193d ed7f 623c 86e5 d23d
00000030: d5a9 263e 12cd 823c 9280 02be a647 f3bd
00000040: 8e0e 3f3e 5b7a 38bd 07e5 e13d 7212 19be
00000050: 764e 27be fb0f a1bc efee 013e d4c2 d73c
00000060: cad3 033d 1c8a 063c bc49 fd3d de7f 2b3e
00000070: 38af 07be 5eff fabd cd8b 263b c515 f53d
00000080: f833 043d b82d 423e b2cd 0fbe 43f8 bcbd
00000090: 9330 05be 215b ccbd 1073 30be 5ef6 34be
000000a0: e728 b03d 144c 5e3d 0b0b ae3d 28aa c73d
000000b0: df6e 3b3e e01e 08be e762 00be 145f 423e
000000c0: b9ce 42be 1032 94bd b4f7 4d3d 830c 14bb
000000d0: 0c3b dc3d 328d 933d b33d d23c 3269 3b3e
000000e0: 932c 10be a9a5 253e be2b 7c3d 0288 69bb
000000f0: 4fad 9d3d 5ea0 85bd 910a 5fbe 3356 843d
00000100: 6efc 4a3d 02cf 12be 3015 92bd 08c4 1ebd
00000110: f360 c8bd 96cc 50be 98d6 30bd bba3 df3d
00000120: 117d d93d 0963 393d 7f44 bdbd 410a a03d
00000130: f891 36bd 7cb1 623d 2be6 143e 360a 0a3e
00000140: c245 843c 6511 eb3d 30c5 b9bd d2a9 61bd
00000150: c44c 08be 1d73 97bd 9dd7 f83d df11 e1bd
00000160: 3312 c53d da2d bdbd 9df9 44be a5c2 e3bd
00000170: 8b9e 073e afe8 8fbd 355f a3be d98b ba3d
00000180: ed21 e73d f130 c7bb f10e 2ebe af30 0d3b
00000190: 23a9 76bc 2438 333e 7fd8 80be eea4 003e
000001a0: 0b9d 87bd b2fb 803c 2aca 1e3e d8f2 2c3d
000001b0: 5130 eabd 313f 833b 57e8 89be e1b6 473d
000001c0: ea81 713e 1b54 1abe 4018 483e 3bf3 e53d
000001d0: 1129 efbd 8c90 6f3c 828a 0f3e 0f12 0c3e
000001e0: 4d07 683e 6ba3 223e ca79 4f3d 6814 13be
000001f0: db21 673d a1ca 9abd 74e4 7e3c b218 9dbd
00000200: 7ce9 0fbe 7e9b 003e 136f 92bd 9803 f53d
00000210: ef75 833d 4760 fc3d bdd6 43be b848 353e
00000220: d8ef eabd 4f1f 09bd 978a 4d3d 0be3 da3d
00000230: 469b 01be 275b 3dbd 087f 06be 60c8 63bd
00000240: ac21 8ebd 574e 1d3e c36d 933d 2cfa e63d
00000250: 14af 37bd 6793 903c 2d7e b4bd 242a 13bd
00000260: d35c 0ebe 94f9 493d 03b6 babd 50ac 83bd
00000270: 8895 2b3e c271 25be bf31 24be c194 ee3d
00000280: 98b7 3a3d cee4 933d ccf4 853d 63d2 30bd
00000290: f858 0abe c18b 97bd b1c5 05bd c2bc 14be
000002a0: fdaf 1cbd 5767 0cbe 73ac 063e 872a 0d3e
000002b0: 159a bc3d 6617 fe3d 7266 32bd bd78 2b3e
000002c0: 73f9 203e 6f21 ee3c ddd3 97bd 268c 4d3e
000002d0: 6c2a f8bd fb5e 103e ff37 b0bd 7203 ef3d
000002e0: 1662 17bd 5808 e5bd 09f4 d83d 9299 123e
000002f0: b8ea 3abb d669 203d 282d 443c faba 033e
00000300: 1934 063d d859 6ebb 9090 863d fb63 1d3c
00000310: 2b04 dbbd 8ba1 603d 7462 22be fe9d eb3d
00000320: c100 9cbd e908 51bd 2d8e 4fbd f0f1 073e
00000330: c953 25bb e658 12bc 3f1d 12be 1041 5c3d
00000340: f86d df3d 7717 e83d a37b 373e e2b3 35be
00000350: 286b 3cbd 02c5 273e 2fd3 09be f1c3 1f3e
00000360: fd9c 063e 345c f5bd d98e 233b 6699 d6bc
00000370: f549 d9bc da2d c8bc 92ec b83d cee5 883d
00000380: 30c5 31be eb0f ebbd 4c78 7c3c 6462 853b
00000390: 74ab 28be ed3a fc3d 664c cabc 2eea cb3c
000003a0: a13a bcbd 1235 eb3d 237f bf3d 65c9 163e
000003b0: 45a1 123e e372 d0bd a169 8dbd 95ff 1abe
000003c0: b341 2abe 94b5 ddbd 70c5 4d3d b96c 01be
000003d0: 1238 26bd 6c78 20be f4ec a1bd 648c 153e
000003e0: ad01 143d 8e9e 00be af08 fa3d 7d55 b9bd
000003f0: 0318 82bd 6521 183e 62eb e73d 8aca 273e

left_classification.2.bias f4 [16]
-0.11844911 -0.19645269 0.0078110397 0.02716044 0.19344904 0.2105403 0.021615969 0.13872339
-0.036629446 0.046845246 0.2271063 -0.17789386 -0.21280761 0.10694994 0.13223453 -0.044209957
00000000: 7295 f2bd e52a 49be c0f3 ff3b 927f de3c
00000010: 8117 463e e097 573e f913 b13c 810d 0e3e
00000020: c208 16bd cde0 3f3d 8e8e 683e cf29 36be
00000030: 3dea 59be 9208 db3d 7d68 073e 8015 35bd
