python/trained_lined_plane.pt (torch_old, 621706 bytes, 36 tensors)

left_cnn.0.weight f4 [8, 3, 5, 5]
00000000: 8538 12be 508f 36bd ba61 57be d2d2 56be
00000010: b8e2 5fbe 6197 eebd 374d f4bd c185 98bb
00000020: 6d9a 1ebd 5a67 0bbe 8c68 d23c c27b d7bd
00000030: e460 80bd a5a8 07be 7d6c 1abd 4693 4639
00000040: 172c f8bd 17d4 1abe b89c 56bd a40f 88bd
00000050: 1bc7 97bd 0694 a03c 6ba7 b6bd 1470 e8bd
00000060: d92d 15be 2489 56bd 773a cbbd c93e 40be
00000070: d992 90bc 1c0b 9ebd f92a c63c bd67 ebbd
00000080: f61d 3ebd 1676 1e3d 9f56 d9bc 465f 05be
00000090: c097 47bd dbf1 10be 127e 573d 4a54 00be
000000a0: 3995 b13c a98e 3cbb 139f 1bbe 8313 0ebe
000000b0: 3a4e 1abd 3d5b 923c 29e9 3fbd e602 33be
000000c0: 2d86 e03b 9578 7ebd 83e8 013d c585 063c
000000d0: 760c e8bd b225 0fbe 46aa f4bd 131a 2c3d
000000e0: cd35 afbd 7ec2 cfbd d43f bd3c 2eda 24bd
000000f0: 6291 22be 3103 2c3d 8cd0 f0bd 4118 b9bc
00000100: eeb9 f5bd 5529 13be 560e 5abd 91cf 35bd
00000110: d509 573d 20e2 07be 9190 14bd 2a03 e5bc
00000120: 62fa 343d 2e39 f0bd 67b5 17be fd82 98bc
00000130: 26b9 70bd 45a7 993c e54b 9cbb f0c4 943d
00000140: 611c 323d b1df 983d 7808 b53d 976f 993d
00000150: 6601 723c 8dad a4bb 53e0 47bd 6973 fe3d
00000160: 6a08 5c3d a80d 0a3e e61b 87bd 4ff4 e83d
00000170: 5135 413d 3e95 5e3d 67a0 91bc 4fec 52bb
00000180: 1280 c83d d97c c6bd 672f 80bc e61d 15bd
00000190: 792b dd3c f8c7 afbd 8a55 153d fdda 973d
000001a0: 1954 013e 7ca4 cd3d a5f6 ef3c 55b7 4abd
000001b0: efc0 013e 2e36 ad3d cb40 3c3d db98 bebc
000001c0: 6f25 3bbd 621e 56bd 2bed 94bb 0774 14bd
000001d0: 3b47 2a3d b013 bfbc 7b8f 0d3d f7ab abbd
000001e0: 66af ac3d 7d8a 38bc bd67 b63d d84a 933d
000001f0: d55f 6a3c 0bfb 3cbd 86cf 57bd 798b e43c
00000200: 1531 853b 156b 883d ebd5 c13b 8952 18bd
00000210: a3b6 ad3d ea30 eb3d b511 c23d 7856 073e
00000220: a569 3e3d 023e 073e 2620 003d d355 b13d
00000230: 5c4e e43c 6af0 3e3c fdfc e83d 74fc 383d
00000240: 1ffa 0c3e 17ad aebd 62fa 533d 79aa bb3d
00000250: 3296 97bd a6f2 08bb 4647 eebd 62b8 bb3c
00000260: fed6 94bd 5295 08be 0d1a 27be ec9a 4f3d
00000270: 0c7b 9a3d 16bb 8abd 0973 7abd 6377 04be
00000280: 08d3 67bc c9d6 f5bd 87d7 05be a5af c83c
00000290: 78de a4bb 6491 31bc b828 0b3d 6320 d6bd
000002a0: 6bf8 bebd 82bc 703d 33f9 7cbd 476a c8bd
000002b0: 1adf 32be 2c54 143d 72f8 abbc cd59 cdbd
000002c0: f40a 12be e5f2 f5bd 268c 36be 7a2e 5fbe
000002d0: 6cc3 8dbd 3179 6fbd 24f3 883d ec28 8dbd
000002e0: 22dc 7dbd 5a1a 92bd 170b 17be 2c10 34bd
000002f0: a3bc 1dbe c54a 23be eb93 01bd d77d 243c
00000300: 6f5f 8bbd a55f 573d 67ea cebd b327 c8bd
00000310: 3b23 f5bd 82e8 3dbe 7060 a1bd 91ed 1abe
00000320: 379e bf3c e65d ed3c 0e2c f13b 103d a8bc
00000330: 9039 33be 352b 98bd 1be5 09be 5868 983c
00000340: e1e0 09bd 9d6b 20be 9c23 26be 450e 03bd
00000350: 286c 59bd 14be c3bd 71a5 2b3d e4ed e2bb
00000360: 7e69 33bd 68e0 75bd 399e a639 a89a 113d
00000370: ec3a 33be 07d7 3ebe 6aec 04be 3a2c e6bd
00000380: 9c71 683c 30f4 c23d bb9e 0abe 67cc c73c
00000390: ef48 89bc 939f c9bd 0b2a ea3c c4bb 8abd
000003a0: 2318 edbd b369 0a3d af86 acbd c777 2a3d
000003b0: c732 ee3a 4fa3 6fbd d3d3 ffbd 855e a53d
000003c0: eec4 ccbd 3f5d 06be f8cb 3ebd abd4 0cbc
000003d0: a254 8dbd e0fc 62bd 3c53 2dbd 3a27 e63c
000003e0: 1917 82bd 20f6 d53d 3d4f a63d 722f d0bd
000003f0: eee6 a93d 4501 443d a353 b5bb 91bc 8c3d
-0.14279373 -0.044570267 -0.21033373 -0.20978859 -0.2186383 -0.11649967 -0.1192879 -0.0046546166
-0.03872149 -0.13613644 0.025684617 -0.10521652 -0.062684804 -0.13247927 -0.03770112 0.00018937615
-0.121177845 -0.15119968 -0.052395552 -0.06643608 -0.07411023 0.019601833 -0.08918651 -0.11349502
-0.1456827 -0.05237688 -0.09923261 -0.1877395 -0.017648147 -0.07716963 0.024190413 -0.11494396
-0.04641529 0.038686834 -0.026530562 -0.13024625 -0.048728704 -0.1415476 0.052610464 -0.12532154
0.0216776 -0.0028771556 -0.15197401 -0.1387463 -0.03767226 0.017865771 -0.04685322 -0.17481574
0.0068519325 -0.062126715 0.03171588 0.008210604 -0.11330502 -0.13979223 -0.119465396 0.042017054
-0.085551836 -0.10144518 0.023101725 -0.040247135 -0.15875772 0.04199523 -0.11758527 -0.022594573
-0.11998354 -0.14371236 -0.053236328 -0.044387404 0.05249961 -0.13269854 -0.03627068 -0.02795561
0.044184096 -0.11729656 -0.14815293 -0.018617148 -0.05877032 0.018756518 -0.0047697895 0.07264125
0.043484095 0.07464541 0.08839506 0.07491987 0.014770841 -0.0050255717 -0.048797917 0.124243565
0.05371896 0.13481772 -0.06597118 0.11374723 0.047169987 0.054341547 -0.017776681 -0.0032184308
0.097900525 -0.096917816 -0.015647603 -0.036405466 0.026998268 -0.08583063 0.03645853 0.074148156
0.12629737 0.100411385 0.029292414 -0.049491245 0.12671255 0.084575996 0.04596023 -0.023266247
-0.045689996 -0.05227507 -0.004544874 -0.036243465 0.041571837 -0.023324817 0.03456066 -0.08382409
0.08431892 -0.011263487 0.08906505 0.0719201 0.014305075 -0.04613785 -0.052688144 0.027898537
0.004064689 0.06661049 0.0059153936 -0.037188087 0.08482101 0.11483939 0.094760336 0.13216579
0.04648747 0.13207248 0.03128066 0.08658948 0.027869396 0.011653999 0.11376379 0.045162633
0.13767289 -0.08529108 0.051752456 0.091633745 -0.07401694 -0.0020896583 -0.11634688 0.022915069
-0.07267569 -0.13338211 -0.16318531 0.050684854 0.075430006 -0.06773965 -0.061144862 -0.12936167
-0.014149435 -0.12003858 -0.13070498 0.024497816 -0.005031403 -0.0108378865 0.03397438 -0.10455396
-0.09324726 0.058773525 -0.061761092 -0.09785896 -0.17467919 0.036213085 -0.020992491 -0.10026894
-0.14261991 -0.12009219 -0.178269 -0.21795073 -0.069220394 -0.058465187 0.066870004 -0.06892571
-0.061977513 -0.071339324 -0.14750324 -0.043960735 -0.1540399 -0.15946491 -0.031635206 0.010039768
-0.06805312 0.052581448 -0.101033024 -0.09773197 -0.1196961 -0.18545726 -0.07879722 -0.15129687
0.023390872 0.028975438 0.007359988 -0.02053693 -0.17502427 -0.07430116 -0.13466303 0.018604442
-0.033661727 -0.15666051 -0.16224521 -0.03199603 -0.05308166 -0.09557739 0.041905824 -0.0069253314
-0.043801777 -0.060028464 0.00031779872 0.035547882 -0.17502946 -0.18636714 -0.1298081 -0.11238904
0.014187243 0.09519231 -0.13537113 0.024389459 -0.01675841 -0.098448895 0.0285845 -0.06774095
-0.11576869 0.03379221 -0.08424126 0.041618135 0.0018173092 -0.058505353 -0.12491574 0.08074669
-0.09998499 -0.13121508 -0.04658124 -0.008595626 -0.06900908 -0.05541694 -0.042315707 0.028094877
-0.06352062 0.10447335 0.08120582 -0.101652995 0.082959995 0.047852773 -0.005533652 0.06871904

left_cnn.0.bias f4 [8]
00000000: 68b0 f3bc f6f6 003c bab2 163b 8c6e db3d
00000010: 3436 323e 73ea cf3d 15d0 7ebd 71d3 8c3d
-0.029747203 0.00787138 0.0022994713 0.107144445 0.1740349 0.101521395 -0.06221016 0.06876267

left_cnn.2.weight f4 [16, 8, 5, 5]
00000000: 559e 03bc c419 a33d 5c45 1ebc f510 cf3d
00000010: d944 38bd 81ee 643d b694 8d3d e080 b03d
00000020: 5ffa a63d 4461 403d 03f5 863c 2a95 473d
00000030: f7c0 ba3d 2879 873c 2e04 ab3d ccac a83c
00000040: 21bf a03c 8693 893c 93b1 c8bc f9ae a53d
00000050: 6187 a0bc 77f5 ab3d ee71 bbbc d90e a33d
00000060: 553b 133d beaa 89bd 5d0f 86bd 8223 45bd
00000070: f6cb 343c b2a3 063d dab2 54bc 86f3 db3b
00000080: e564 313d a342 2b3c adc2 80bd e01f ea3b
00000090: 9866 933b aaf3 6abc 6f68 553d 9a3a 813d
000000a0: b1d5 863c 7d18 48bd b428 303c c95f 58bd
000000b0: 85c4 273d cf89 1e3d 0db1 d13c 5727 cd3c
000000c0: ec6e 453d b518 d4bc 0041 d53d 9c46 273d
000000d0: f7ff c63d d547 b13d 0a1e d63a 5bbc 973d
000000e0: 12ca d73d db4c b0bc 97f9 c53b cc77 e43d
000000f0: 9c51 ea3d 487d c73d dbdf b43c a734 e53d
00000100: 4a95 333d 8524 67bc 3f05 c1bc a0c0 243d
00000110: ab38 e23d d667 fc3c dc7a d43d 3eb8 413d
00000120: be6c 933c 110f f5bc 4ad4 603d 2134 e03c
00000130: 884b bcbc 0e92 843d 3ccd e5bc 48ca ed39
00000140: 59e2 06bd ad22 60bd 1b2b e6bc 5436 173d
00000150: 2e8d a83a b2b2 ff3b 3bc7 5cbd c33f 0c3d
00000160: a76f 813b 644d 1e3d 39ed 73b9 4db4 6bbd
00000170: b5dd a93b e1a0 133d 7320 e63c b161 0bbd
00000180: d270 e43c 473c 43bd 391f 74bd 9cc4 41bc
00000190: 61b9 0f3d 7098 bdbc 2711 9b3d 8aba 473d
000001a0: 52e9 f3bc cab1 d33d c23f ad3c 045a d83d
000001b0: 8d6d 453d dce7 90bc 9dc4 d03d 1cea 42bc
000001c0: 7e0a c13d b86d bd3d 1d1d b73d 49b7 853d
000001d0: acc8 623d ab88 293d fd31 dd3d bb7e da3d
000001e0: 2f45 163b bd8d 16bd da38 823d c40d e93c
000001f0: 65b1 d93c 567a 48bc 3210 843d 6999 503d
00000200: 9153 8bbd f88c 0a3d 4fd2 673c c5bf a63c
00000210: f92f 793d c8e3 0d3c 486f 2f3d 640b 3d3c
00000220: 695a 9d3c 5910 2fbd 800c 063d 41f5 873d
00000230: 11f6 0c3d c1be e13a 08d3 6a3d a6ac 50bd
00000240: 78b4 623d 10a4 963d 1733 c7bc 2318 2338
00000250: 4e43 a43d e369 8abc d767 6cbd f365 773d
00000260: 2e44 a4bc 48c8 0cbc 0b0e 723d 58c2 8cbc
00000270: d768 a1bc 1202 21bd c462 39bd 2574 09bd
00000280: face 9c3d c379 02bd 0d0b 5b3c 7212 17bd
00000290: 8e12 613d 4839 913d dceb 303d 1968 973d
000002a0: ffdf 3f3c 8a96 e23c 06a9 383a 19e6 7b3d
000002b0: 245c 79bc 71af 5f3d 699e 2d3d 42d0 293d
000002c0: 058a aabc 5458 913d 6e8f 723d d6f3 36bc
000002d0: fda9 f8bc 2ced 9c3d dee5 b73b 859a 1d3c
000002e0: 2f63 51bd 918a ec3c 23e1 35bc ed49 29bd
000002f0: 8db7 963d acc1 ea3c 74ad 4fbb 75f9 b33c
00000300: 1f69 4f3c 1f4d 7e3d 1fdb 6a3d 4855 953d
00000310: b693 15bd 19ce c838 118e 9bbc da56 3abc
00000320: dfd8 193c c528 02bd 3a21 45bc 9b59 5c3c
00000330: 5d1d 40bd 1c52 b43d b5dc 52ba 94c7 b8ba
00000340: 1fbf b23d 0457 8dbc 2a52 2ebd b3e3 eabc
00000350: 2857 d03d 1875 993d ec21 de3c 54d7 8cbd
00000360: 54cc 573d e7b6 b03c 7718 103d 1d71 41bc
00000370: 35a5 97bc 77f6 423c 54ee 16bd 0dc6 f03c
00000380: 9c7f 12bd 6555 52bd f5e8 debb b698 733d
00000390: 4af9 71bd 5e1a 563d d564 ae3c 9798 9d3d
000003a0: 4ef5 993d b4a5 983c e174 1d3d a249 b43b
000003b0: 4cfe 4cbd 0623 723d ed20 7a3c eb67 18bd
000003c0: ce5a d53c a401 73bd f54e 8c3d 96b9 843d
000003d0: bdad 7f3d 2381 983d 7be9 a13d a7f2 21bd
000003e0: b37b 2abb eeae d83b 60b9 40bd 9b3c 783c
000003f0: 1a6f cd3b 286a 0c3a 5758 25bd 4643 ea3c
-0.008033355 0.07963899 -0.009660091 0.10110656 -0.044987533 0.055891518 0.0691313 0.08618331
0.08153223 0.04696776 0.016474253 0.04872624 0.091188364 0.016537264 0.083504066 0.020590208
0.019622387 0.016793977 -0.024498736 0.08090014 -0.019595804 0.08396428 -0.022881474 0.07961816
0.035945255 -0.067220196 -0.06545899 -0.048129566 0.011034956 0.032870956 -0.012982095 0.00671238
0.04330911 0.010452899 -0.062871315 0.007144913 0.004498314 -0.014340321 0.05210155 0.063100055
0.016459318 -0.04885148 0.010751892 -0.052825723 0.0409589 0.038705643 0.02559712 0.025043173
0.048201486 -0.025890687 0.104127884 0.040838823 0.0971679 0.08656279 0.0016335857 0.07408973
0.10536589 -0.021521023 0.0060417163 0.11155662 0.11441347 0.097406924 0.022079399 0.11191683
0.043843545 -0.014107828 -0.023562072 0.040222764 0.11045965 0.030811232 0.10374996 0.047294848
0.017996188 -0.02991441 0.054889955 0.027368607 -0.022985235 0.0647317 -0.028051965 0.00045354874
-0.032930706 -0.05472057 -0.028096726 0.036917046 0.0012859458 0.0078032846 -0.05390094 0.034240495
0.0039500776 0.038648024 -0.00023262658 -0.057544995 0.0051839002 0.036042098 0.028091645 -0.034028713
0.027885828 -0.047664907 -0.05960009 -0.0118266605 0.0350889 -0.023143977 0.07571631 0.048761882
-0.029774342 0.10336645 0.021148566 0.10564044 0.04820018 -0.017688684 0.10193751 -0.011896636
0.09425829 0.09249443 0.089411 0.065290995 0.055367157 0.041390102 0.1080055 0.10668703
0.002292942 -0.036756266 0.063585 0.028448947 0.026573846 -0.012236198 0.064484015 0.050927553
-0.068030484 0.033825845 0.014149263 0.020355115 0.060836766 0.008660264 0.042830735 0.01153836
0.01920815 -0.0427402 0.032726765 0.06638575 0.034414355 0.0017222987 0.05733016 -0.0509459
0.05534789 0.07355511 -0.024316354 3.8884707e-05 0.0802065 -0.016896194 -0.057716217 0.06039996
-0.020052042 -0.008592673 0.059095424 -0.017182514 -0.019703312 -0.039308615 -0.045260206 -0.03355803
0.07656665 -0.031854402 0.013369334 -0.036882825 0.054949336 0.07091004 0.043193683 0.07392902
0.01171112 0.027659673 0.00070442294 0.061498735 -0.015219722 0.054610673 0.0423874 0.041458376
-0.020817766 0.070969254 0.059218816 -0.011166533 -0.030354494 0.076624244 0.005612119 0.00961936
-0.05111998 0.028874667 -0.01110104 -0.041330267 0.07359228 0.028656803 -0.003168908 0.021969536
0.01265934 0.062085267 0.057337876 0.07291657 -0.03651782 9.575132e-05 -0.018988641 -0.011373246
0.009390085 -0.031777162 -0.012031848 0.013449098 -0.046903003 0.088047236 -0.0008043752 -0.0014097565
0.0872786 -0.017253406 -0.042558827 -0.028673029 0.10172874 0.07493037 0.027115785 -0.06877008
0.052685097 0.02157159 0.03517958 -0.011806753 -0.018511394 0.011899582 -0.03684838 0.029391313
-0.03576623 -0.05135097 -0.006802673 0.05947181 -0.05907563 0.05227124 0.021288315 0.0769512
0.07517491 0.0186337 0.038441543 0.005501942 -0.050047204 0.059115432 0.015266639 -0.03720848
0.026044276 -0.059327736 0.06850997 0.0648071 0.06242155 0.07446506 0.07905861 -0.039538052
-0.0026013672 0.00661265 -0.047051787 0.015151168 0.006269348 0.00053563947 -0.04036745 0.028596532

left_cnn.2.bias f4 [16]
00000000: a486 073d 5f32 593d ed47 c33c ea45 efba
00000010: cf3d cdbc 7ea2 703d 6e50 13bd 60d4 87bb
00000020: 3902 6a3d 695c 62bd 8dd0 843d ee49 013b
00000030: 7772 f53c 28c9 983d c8ba fbbc e50e 18bd
0.033087388 0.053026553 0.023838008 -0.0018255089 -0.025053887 0.058748715 -0.035965376 -0.00414519
0.057131026 -0.05526391 0.064850904 0.0019727903 0.029961808 0.074602425 -0.030728713 -0.03712358

left_cnn.4.weight f4 [32, 16, 3, 3]
00000000: 3ea5 843d 3033 d73b 19ab 683d 5b09 7dbd
00000010: ea51 a03c b761 dd3c f618 733d 1f49 48bc
00000020: e787 483a 8dc0 803c 535f 313d 8382 c03c
00000030: 65e8 81bd c26a 8cbd ae53 23bc ff0d 3e3b
00000040: 8fd6 2eba 8193 9a3a 6b5c 233d 919a b23d
00000050: f53a 5bbd 2222 4c3d aaf3 08bd f39c 99bd
00000060: 2817 c8bc f038 f93c 7259 7d3d c517 3a3d
00000070: a232 f6bb 3b7a 3abd 1f2e 5d3d bbb8 f53d
00000080: e2a3 a23d 5feb 983d f3af 0abc c899 95bd
00000090: f7f6 6fbd e24d 0b3d 252b 063d 9b27 833d
000000a0: 1940 f7bc 8979 c63d a4b1 b2bd 9df4 1dbd
000000b0: 0e3c 86bb d89e c63c a67b b93d 58f6 5d3e
000000c0: e983 1d3d c4a2 0c3e 6d69 963d ae08 a83d
000000d0: 1198 29bc 57ec 1bbd dcbb a23d 85eb 703d
000000e0: 9d93 68bd 857b 293d 7b09 6ebd 48fb ddbc
000000f0: 8b89 b33d f595 3ebc 0186 a63c 4e8e 28bd
00000100: 6f43 68bd 3f1a 933d 17bc c93c e710 4f3d
00000110: c21c 663b b0ce e93a 66a4 6c3d 0b9d 26bb
00000120: 42cb 853d 8e98 40bd 6e35 92bd e13d cabc
00000130: 1311 b73c 9fbc 96bc dc3a 093d 1f1b 973b
00000140: a26d d2bc 34a3 873d cd54 8a3d db37 783d
00000150: 7156 d1bc 7e4b a03d bbf8 9f3d 0327 0d3d
00000160: 375f 973c 9c24 91bd 0a9f 72bc ad4b 833b
00000170: 9bb2 053d e0b8 4fbd f864 0b3d f0f8 d93c
00000180: db6a 023c 1f41 6cbd 4fc2 0c3d a1fe 7a3e
00000190: 1dbf b63e 1eb1 4d3e 47be 9f3e f0c8 293e
000001a0: 5c1d 963e ff5b 2a3e c173 103e e59c 263c
000001b0: 6633 db3d 76b4 533d 79aa ab3d 864f bebc
000001c0: 709a 293d 2e59 0cbb 3f5c 98bd 8a04 3dbd
000001d0: d6ac 8bbd 9654 7b3d bbfd 84bc 4e71 593d
000001e0: ad67 51bd 476f be3d c01e a33d de77 84bc
000001f0: 30de 4cbd 29f4 92bd 6714 8d3c 820c b9bc
00000200: 34db c5bc 5bb1 79bc 9e28 9c3d 7f45 e53b
00000210: 52c8 7c3d f8d8 5bbd 27b0 51bd a98a 6c3b
00000220: f712 b93c 95d9 5f3d 78f2 3d3d 62a9 96bd
00000230: e6c3 2fba 26f8 9fbd 8854 0b3d 18f3 ebbc
00000240: ea38 f5bc e5a5 48bd fd0b 573d dc0f 3fbd
00000250: a3ad 8b3d 743a 943d 91cd df3c 1f5e 92bd
00000260: 71ff 863c 332c 1b3d d4c9 2b3c 0fb4 bdba
00000270: 9949 b53d 7d55 7c3d 2f9e 743c d13d 5d3d
00000280: e103 0e3d de6f bdbc 582f 2cbc 22e3 a83c
00000290: ad70 433d 1868 623d 50d2 123d dc44 103d
000002a0: e0eb 953c 2287 a83c 3958 713d 6354 993d
000002b0: e249 c03c fd90 a2bd cefc 9d3c 5fb0 893d
000002c0: 2bbb 3c3c 38cb c73d fec7 ae3c 5f3f 4cbd
000002d0: ddfd 5c3b b04e 37bc 5d3e b2bc 6679 913d
000002e0: 84e7 143d f97e 0d3c 03d1 6b3c 1385 f83c
000002f0: b36a 13bd 93ce b63c a428 96bd b68a ecba
00000300: 0509 ae3c 7fcd afbc 0224 37bc 0ff5 993d
00000310: c19d 053d 1a63 fabc 97e2 9b3b 1509 6d3b
00000320: ac2f 99bd 6fbd 36bc 6015 5d3d b81c 0e3d
00000330: 30e9 5d3d 5de6 adbc 9373 82bd 8bc6 8a3d
00000340: 5d30 c33b 41d8 ab3d eb38 4a3d 0267 7d3c
00000350: 9ca0 193b 41db e53c 0b12 e0bc c168 1dbd
00000360: bcdd 4dbd 379a 883d 2594 8c3d 638b 0a3d
00000370: fe05 b13c 2f02 fa3c a91c 4cba 447e 833c
00000380: 53ba 083d cf79 12bd b0e1 d1bc f0dc a3bd
00000390: e88b 58bd 04d0 1dbd e6cd 78bd f4d9 473d
000003a0: 1f6f aabc 46d2 283c ae60 61bb 925d f43c
000003b0: e3bb d53c f0e6 9fbd 5841 14bc a868 5cbd
000003c0: c30e 8e3a 1182 85bc adf3 75bc 1188 8d3e
000003d0: ca01 033e 9b46 1c3c de72 a23e 1a41 483e
000003e0: f40f 993d bb20 6e3d 83a1 57bc 80f6 6c3d
000003f0: 7c0c 8dbc 0742 8a3d 979e 71bd 117c 8bbd
0.0647683 0.0065673813 0.056803796 -0.0617765 0.01957031 0.027024133 0.059349976 -0.012224465
0.00076496456 0.015716815 0.0433038 0.023499733 -0.06343154 -0.068563 -0.009968681 0.0029000042
-0.0006669545 0.0011793227 0.03988306 0.087208875 -0.053523023 0.04983724 -0.0334355 -0.07500639
-0.024425104 0.030422658 0.06185288 0.045432825 -0.00751336 -0.045526724 0.053999063 0.11998125
0.079414144 0.074667685 -0.008464801 -0.07304722 -0.058585133 0.03400982 0.03275599 0.064040385
-0.030181931 0.0969115 -0.087252885 -0.03856336 -0.0040965145 0.024245664 0.09056787 0.21676004
0.038455877 0.13733965 0.07344327 0.082047805 -0.010351197 -0.038067188 0.079459876 0.05881836
-0.0567814 0.041377563 -0.05811451 -0.02709736 0.087664686 -0.011632432 0.02032757 -0.041151337
-0.056704935 0.071827404 0.024625821 0.05055323 0.0035112356 0.0017838087 0.05777397 -0.0025423195
0.06532909 -0.047020487 -0.07139097 -0.02468771 0.022347009 -0.018400488 0.0335034 0.0046113874
-0.025687043 0.066229254 0.06754456 0.060600143 -0.025553914 0.07826899 0.078111134 0.034461033
0.01847802 -0.07087061 -0.014808426 0.004006824 0.032641035 -0.05071342 0.03403184 0.02660796
0.007960047 -0.05767929 0.034364995 0.24511196 0.35692683 0.20087096 0.31199858 0.16580558
0.29319274 0.16636656 0.14106657 0.0101692425 0.10703163 0.051685773 0.083821245 -0.02323128
0.04140705 -0.002141546 -0.074394695 -0.046146907 -0.06820075 0.061359964 -0.01623427 0.05308657
-0.051124264 0.09298568 0.079648495 -0.016170438 -0.050016582 -0.07175476 0.017221643 -0.022588972
-0.024152376 -0.015240039 0.076249346 0.00699681 0.061714478 -0.053673714 -0.051193383 0.003609339
0.022592051 0.05465086 0.046373814 -0.07356526 -0.00067049114 -0.078110024 0.034016162 -0.02880244
-0.029934365 -0.048986334 0.052501667 -0.046645984 0.06820228 0.072377115 0.027319701 -0.071468584
0.016479226 0.03788395 0.010485131 -0.0014473217 0.08851928 0.061604965 0.014930292 0.05401403
0.034671668 -0.023124631 -0.0105093345 0.020616118 0.047714878 0.055275053 0.0358451 0.03522192
0.01830095 0.020572249 0.058922026 0.074867986 0.02347273 -0.079378106 0.019285586 0.06723093
0.011519234 0.09755558 0.021335598 -0.049865123 0.003372065 -0.011188194 -0.021758253 0.07103233
0.036353603 0.00863623 0.014393094 0.030336892 -0.03599043 0.0223153 -0.0733197 -0.001804671
0.021244535 -0.021460293 -0.0111780185 0.07517444 0.03262115 -0.030564833 0.004757236 0.0036168743
-0.07479796 -0.011153563 0.053975463 0.034695357 0.054177463 -0.02122801 -0.063697 0.0677615
0.005956693 0.083908565 0.049370687 0.0154664535 0.0023441678 0.02805865 -0.027352354 -0.03842998
-0.05026029 0.06670039 0.06864194 0.033824336 0.021609303 0.03051862 -0.0007786253 0.01605142
0.033380818 -0.035760697 -0.025620311 -0.08001125 -0.0528678 -0.038528457 -0.060743235 0.04879184
-0.02080494 0.010304039 -0.00343899 0.029829774 0.026090568 -0.0780772 -0.009048782 -0.053810745
0.001083814 -0.016297372 -0.01501171 0.27642873 0.12793651 0.009538318 0.31728262 0.19556084
0.07473746 0.058136683 -0.013161066 0.05785227 -0.017217867 0.06750875 -0.058989134 -0.06810773

left_cnn.4.bias f4 [32]
00000000: b95c 683d 6f38 9a3b 0e35 91bd 08fe eebc
00000010: 98e3 17be 0c37 aa3d 8bd7 d83c 1724 4cbd
00000020: 56a5 93bb b88c 263c c5ce 823d 04cb 09bc
00000030: da8a 9abd eb62 1f3d b112 293d 61f2 44bd
00000040: 87b2 c33d 0f34 e13d 824e ccbd ce74 9dbc
00000050: 6162 bf3c 5068 92bd fc8e 50bd 132a adbd
00000060: 6225 57bb 2228 43bd e125 92bc 62e0 20bd
00000070: 14f6 0e3c 142d f93c d645 75bd 7721 353d
0.056729052 0.0047064344 -0.070901975 -0.029173866 -0.14832914 0.083112806 0.026469966 -0.049839105
-0.0045057936 0.010165386 0.063870944 -0.008410219 -0.07546015 0.038912695 0.04127759 -0.048082713
0.09555536 0.109962575 -0.09975912 -0.019220736 0.02336234 -0.07148802 -0.05091761 -0.08455291
-0.0032828678 -0.047645696 -0.017840328 -0.039276488 0.008725662 0.030417003 -0.059881054 0.044221368

left_cnn.6.weight f4 [64, 32, 3, 3]
00000000: 083c a43d 13ff c4b9 0841 523d a70d 35bd
00000010: a89d c33c 21ae 70bd ebdc 55bd 9b9d b7ba
00000020: 92c0 443c 69ac 1ebd d7a6 e33c 374b 93b9
00000030: 44ea bb3c e9de 4fbc 83ff 833d dcc8 aa3c
00000040: 9dba 9b3c 439c 51bd 1eb5 7d3b 4446 183d
00000050: d531 ee39 19eb 103d 455c cabc bee0 433d
00000060: 592a 4abd 4401 42bc 481b 543d 5583 f03c
00000070: 2d38 963c 03a8 343d 775a 3d3d 7a5a 1a3d
00000080: 769b 9dbd a97b e23c 846e 123d 5d46 d63c
00000090: eb90 a1bc 447d 1a3e d6f6 163d 4eb5 cbbd
000000a0: a3e2 c0bd 6a8e 04bd 4ab6 033e d3fd e03c
000000b0: 70b2 893b 06c5 843d 4746 713c ee68 04bd
000000c0: 838c 74bc 105a 6cbd f5be 713b bea4 d63c
000000d0: fc54 31bb ae76 3f3d 185f 9cbc d97e 173d
000000e0: 52c8 2f3d dcda 19bd d9bd 50bc cf31 3e3d
000000f0: 0cb2 523d cc40 0fbc c1ae 45bd 71ef 3b3d
00000100: 95b0 273d 2eab 873d aa06 573d 8db2 48bd
00000110: 4319 243c cffb e23b 53cb 343d e5ab 883d
00000120: 4f52 273d c28d bb3d c1a9 e93d e7b0 74bc
00000130: aacf f5bc 0b09 1d3c 55ea bebc c619 82bd
00000140: 98ce b4bc fd5f 9dbd 5dbb 70bd ac2b 353b
00000150: 2045 0d3c 383e bd3c 5e47 e53c 96be 313d
00000160: 4679 17bd 2b33 363d 4fc7 c13c 6792 3b3c
00000170: 7acc 2a3c 0589 e93b bb73 cc3c e530 2a3d
00000180: 7a3f 53bd b350 2c3d d29b 483d 15fe 97bc
00000190: efa8 9dbd ef5e cdbd bf4e 553d 67a5 513d
000001a0: 413e d03d 9f3c 71bd 9c59 c93b de3c 113d
000001b0: 0c8d 79bc 546c 49bd d2fb 05bd 337f 483d
000001c0: 42cc a03d e1a3 493d 8bf8 9bbd c433 29bd
000001d0: dc09 9bbd 5109 063d e55b ed3d 5202 b83d
000001e0: ef97 dcbc e014 173d 4c0a 4bbb 9653 8dbd
000001f0: 1d09 8bbd 3a95 df3c 89eb 213d f0f4 7f3d
00000200: 7d69 9b3d 3c12 1cbb 96bc 553d 45f7 e33c
00000210: d641 f7bc 4b34 adbc e22f 3dbd 164e 32bd
00000220: d439 583d f7fc 42bc ccf1 19bd 657a 923c
00000230: 84ff 993c ee5f 623d 9add 9fbc 74d8 253d
00000240: 9dde d23c c664 52bc 928b 0d3d 5d5d 3f3d
00000250: f726 29bd 34ab 11bd ce05 74bc 6e3e 51bc
00000260: e304 8ebc db33 e5bb 1ea2 683d 5d24 e53c
00000270: 35fc 33bd 87b3 d8bc 9e87 cc3c 216a b33c
00000280: fe55 98bb 5f4e fabc 6b6e f63b 4393 8e3c
00000290: 0b18 233d 301d 80bd b880 e4bc ac22 a43c
000002a0: 79a3 8dbc e098 98bd 0509 b6bb c846 96bc
000002b0: 50ff afbc d512 853d 7ae1 0bbd 318c 373d
000002c0: d3c9 e93c 04d2 253c 9377 503d 6f38 0f3d
000002d0: 37ad 4bbd e34e ecbc 59a0 acbd a841 3f3d
000002e0: 3a74 4abc 6e2b ec3d a1c3 ebbb 1019 46bd
000002f0: 03ad 0abc 8676 303d 02bf 1d3d 78f8 593d
00000300: 561b cbbc 678b 0c3c 60ce 053c 79f2 03bb
00000310: 3c8a 0abc fbb4 fb39 0600 7a3d ff45 563c
00000320: c8bb b2bb dc27 9a3c 1321 33bc a84e 3cbd
00000330: c8f7 b03c d4f1 ebbc 1a73 ad3c ec1d 9b3d
00000340: 9540 be3d b7ee 143d 0463 64bd 1a9a 4f3c
00000350: 127a b1bc 84bd 8ebd 4756 9e3c 86be aebc
00000360: bbcd e6bc 024f 353d 8ec4 3c3c 4b6f cebc
00000370: ddb5 273d 4196 8abc c168 873d b3c5 04bd
00000380: d7e3 063c 1a4e 8d3c 908e 923d 5e6a c43d
00000390: a8ff 02bd 4897 6ebc 32f0 a6bc 7759 74bc
000003a0: 56aa 94bd ad4a 443c 964e d93b 4aa1 11bb
000003b0: bcd2 54bb 793d 67bd dbd7 923b 077d 42bd
000003c0: 4f00 943c 8205 cabc f11d 633c 4dc5 c3ba
000003d0: 3a93 873d 03dd c33d c59d c93c 2a6a 1cbc
000003e0: f428 abbd b162 1d3d dc4c d9ba 8d70 c139
000003f0: 1e59 af3c c272 933d 0f77 6abb f646 0cbd
0.080192626 -0.00037574078 0.05133155 -0.044202473 0.023878887 -0.058759812 -0.052212637 -0.0014008762
0.012008803 -0.038738642 0.027789516 -0.00028094064 0.022938855 -0.012687423 0.06445219 0.02084773
0.019009883 -0.051174413 0.003871269 0.037176386 0.00045432025 0.035380457 -0.0247022 0.047821753
-0.049356792 -0.011841122 0.05178383 0.029359499 0.018337334 0.04410554 0.046228852 0.03768394
-0.076956674 0.027646856 0.035749927 0.026156599 -0.019722423 0.15086848 0.036856495 -0.099466905
-0.094182275 -0.03236238 0.12862507 0.027464783 0.0042021796 0.06482892 0.014726228 -0.03232663
-0.014926079 -0.057703078 0.00368875 0.026201602 -0.0027058711 0.04674404 -0.019088313 0.036986206
0.04291565 -0.037562236 -0.012740576 0.04643422 0.05143933 -0.008743476 -0.04826236 0.045882646
0.040939886 0.06624447 0.05249659 -0.048998404 0.0100157885 0.0069269906 0.044139218 0.06673411
0.04084998 0.091578975 0.11409331 -0.014934755 -0.030006249 0.009584676 -0.023305098 -0.06352572
-0.022071168 -0.07684324 -0.058772434 0.0027644439 0.008622438 0.023100957 0.027988132 0.043394648
-0.03698089 0.04448239 0.023654608 0.011448479 0.010424728 0.0071269297 0.024957528 0.041550536
-0.051574208 0.04206915 0.048976727 -0.018553773 -0.07698237 -0.10027873 0.05207705 0.05118313
0.10168124 -0.058895703 0.0061447155 0.035458438 -0.015231382 -0.049175575 -0.032710858 0.04894943
0.07851459 0.049228553 -0.07615765 -0.041309133 -0.0757024 0.03272373 0.11589793 0.089848176
-0.026927916 0.036885142 -0.003098148 -0.069007084 -0.067888476 0.027292836 0.039531264 0.06248945
0.0758848 -0.002381458 0.052181803 0.027827868 -0.03018276 -0.0211431 -0.046188243 -0.0435315
0.052789524 -0.011901132 -0.03758411 0.017880628 0.018798597 0.055267267 -0.019514848 0.04048963
0.025740916 -0.012841409 0.034556933 0.046719898 -0.041296925 -0.035563663 -0.014893962 -0.012771232
-0.017336315 -0.006994707 0.056795232 0.02797144 -0.043941695 -0.026452793 0.024967011 0.021901192
-0.004648923 -0.030554948 0.007520487 0.017404204 0.03981785 -0.06255567 -0.02789341 0.020036064
-0.017289864 -0.074510336 -0.0055552744 -0.018344298 -0.021484047 0.064977325 -0.034150578 0.04481143
0.02853862 0.010120872 0.050895285 0.03496593 -0.049725737 -0.02884621 -0.084290214 0.046693474
-0.012356812 0.11531721 -0.0071949516 -0.048363745 -0.008464101 0.043081783 0.038512237 0.053215474
-0.024793308 0.008578158 0.008166879 -0.0020133539 -0.008455809 0.00048009292 0.06103518 0.013078212
-0.005454514 0.018817835 -0.0109331785 -0.04597345 0.021602526 -0.028801836 0.021173049 0.075740665
0.09289662 0.03636047 -0.05575849 0.012671018 -0.021664653 -0.06969741 0.01932825 -0.021331083
-0.028174272 0.0442648 0.011521472 -0.025199553 0.040944923 -0.01691735 0.06611777 -0.032415103
0.008233032 0.017249156 0.07156098 0.095906004 -0.031982094 -0.014562435 -0.020378206 -0.014913908
-0.072590515 0.011980695 0.0066316826 -0.002222138 -0.003247424 -0.05645511 0.0044812984 -0.047482517
0.018066553 -0.02466083 0.013862119 -0.001493612 0.06619878 0.09563639 0.024611363 -0.009546796
-0.083574206 0.038424198 -0.0016578692 0.00036895685 0.0214048 0.07199623 -0.003577653 -0.03424736

left_cnn.6.bias f4 [64]
00000000: a0a1 193d 799c 813d dc0d b73c 9381 a0bd
00000010: 0762 533d cb26 14bd 52b8 a63d 4699 703c
00000020: b48f 093a e2f2 bb3d c472 8abd 9f3e 45bd
00000030: 749b 713d 33d0 52bd 8eb7 ca3c 88d5 0f3d
00000040: 912e 7c3b 111f deba 619d a43d 4262 69bc
00000050: a6b9 1abd 89e5 053c 2f04 04bd f577 4e3d
00000060: e974 263d 271b fb3c a5aa 29bd ec6d 58bc
00000070: a9cb 55bd e4d7 68bc 9d17 d0bc 3eec 44bb
00000080: ba0c e1bc c9cd b13d ad97 073d cdae fc3b
00000090: c4a3 933c bf6c 7e3d c49e 383c 8e9a 013d
000000a0: 83e4 60bd f2b1 493d cf04 04bd c294 85bd
000000b0: d614 673c d01d bb3d b03e 243d 19d4 a73c
000000c0: 3d63 26bd e2d8 e6bd 9a60 583d bc19 0d3d
000000d0: 6a7c 30bc 3654 6c3d 2e8c 453d 16cb 9c3c
000000e0: d85e 81bd 3211 273d 1e89 0c3d 0068 6fbd
000000f0: a879 65bd 14cd 32bd 694c edbc 5626 b73d
0.037507653 0.06328673 0.022345476 -0.07837214 0.051607158 -0.03616981 0.08140625 0.014684981
0.00052475487 0.091771856 -0.06760171 -0.048155423 0.058986142 -0.051468085 0.024745729 0.03511575
0.0038479904 -0.0016946514 0.0803783 -0.014244618 -0.037774704 0.008172401 -0.032230552 0.05040737
0.040638838 0.030652596 -0.041422505 -0.013209801 -0.05219618 -0.014211629 -0.025401885 -0.0030048038
-0.027471889 0.086818285 0.033103634 0.0077112676 0.018022425 0.062115427 0.011268321 0.031641535
-0.054905426 0.049241967 -0.03223115 -0.06522514 0.014104089 0.09136546 0.040098846 0.020486878
-0.040621985 -0.11271836 0.0528265 0.03444837 -0.01077185 0.057697497 0.04822939 0.019139808
-0.06316918 0.040787883 0.034310453 -0.05844879 -0.056024224 -0.04365261 -0.0289671 0.08942859

left_cnn.8.weight f4 [64, 64, 3, 3]
00000000: 36f5 1dbd a801 053d c471 f4bc 2521 10bd
00000010: 881c ad3c f2fa 9db9 185e 56bc 26c8 19bd
00000020: a8d4 ffbb 2443 1d3b 38ac 54bc 8a27 59bc
00000030: dbcd 1e3d 16e8 1c3d c46d 2a3d d4f8 13bc
00000040: 1e6d 8e3c f147 c63c 30fe 843b 17c0 bd3c
00000050: 9179 103b 638b 8bbc 9e52 d2bc c29e 19bc
00000060: ffa7 5bbd 9701 443c 9e7c 1f3c 8e6b 5e3d
00000070: afe0 273d da19 18bc 09d8 30bc c7e3 90bd
00000080: 10a9 0eba 6c63 78bd be16 9bbb cdae 33bd
00000090: 9577 21bd fcf1 9e39 ecef 45bc c49e b4bc
000000a0: 2da2 e43a 0c1e c5bc d601 47bc 1871 30bd
000000b0: a4d1 15bc d078 f23c bc24 09bd 9479 0ebd
000000c0: a6f4 663c 1ee8 12bd b76c 2a3d 1fbb 3e3b
000000d0: 3088 d4bc 8987 0c3d f3fb 4fbc 7c44 ff3c
000000e0: b93c 5b3b 9445 8b3c 3a92 6a3c 8056 1f3c
000000f0: abf4 20bc 3eb7 77bc c1f7 1b3d aebb af3c
00000100: 23e9 0d3c 897a c93c 6c35 d9bb fdb2 6a3b
00000110: 3da4 b13c 6944 42bc 8c19 e13b 34c5 883c
00000120: e102 c33c 16a1 a13c ba83 12bc ae8d 19bc
00000130: 877a d63b abb8 14bd c41d f3bc fd15 f2bd
00000140: 2bde 3dbc 6a7b 8639 7986 333d 6562 2c3d
00000150: eb3b 573c 8a96 1ebc 02d5 dd3c 4aa6 61bc
00000160: 7995 9cbc 8ef0 3d3d b00f de3c 26c8 c33c
00000170: 2eb8 c23c 51f3 1e3d 88a6 10ba af13 c2bb
00000180: 3075 a03c abb7 babc 01fc 20bd eb19 c23c
00000190: 000e 38ba 16b9 53bb 4046 b43c 0080 c438
000001a0: 8e51 143d 8010 a53a d08d 113c 5239 24bd
000001b0: 7987 44bc 60dc 323c ca2f 163d 7b46 c4ba
000001c0: e3b6 05bd f088 e63c b0f5 16bb 8326 cd3c
000001d0: 7129 803c c3cf ecbc 56d3 243a 80ea bf3c
000001e0: 5e79 26bd 68f0 5eba 3eff b6bc 6e0c ca3c
000001f0: 56fe b33c b369 e83c 3c9a 1b3d 3ed7 d23b
00000200: eb51 0e3c 5430 1d3c 57a0 48bd 10e8 ee3c
00000210: 1d25 6a3c 988e 3bbd a7b4 083c 163b 95bc
00000220: 6c12 12bd 58cd fbbc b777 0dbd 8ada 1dbd
00000230: 5765 d93c a2f9 233d 22a1 19bb b7ea 88bd
00000240: ccd9 013d 48fc 9e3c c5b8 163d 3ac1 cfbc
00000250: f468 cc3b 78e7 92bc b1c5 8b3c e1f8 21bc
00000260: 0fcb 13bc bdf6 5e3d fd49 903d e9ab 143d
00000270: 2aa7 67bd d1bb 4ebd ecbb a53c e89c ac3c
00000280: 4ec4 05bd ea41 27bd d2b6 8f3c 8ca2 973c
00000290: e9e2 b43c e4d9 063d acdd c6bc 4306 d83c
000002a0: e563 81bc e82f 0abd a8f8 32bc e7e9 493d
000002b0: fa34 333d 33d8 2c3d 64a2 4fbd 3cab cbbc
000002c0: 6aea 2ebc be21 9439 a5fe 24bd d95b 49bd
000002d0: d675 6a3c 5605 0c3a 985c f0bc 2d7c 143d
000002e0: 63bf b83c f1e8 e5bc a830 983c d067 cf3c
000002f0: 7423 de3c 6297 34bd 5111 d73c a50f 1a3d
00000300: efba c5ba 53b0 343c 0e0c 1dbd 8e53 85bc
00000310: 3da3 493a 9061 89bd 400f c9bb 8e00 0fbd
00000320: 10d6 b0bc 63cf b4bc c15f 6dbc 15a1 4bbc
00000330: 1571 aebc 028b b8bc b0c8 dcbc 2398 7dbc
00000340: a1d2 9cbc ed77 243d 4018 cbbc 4fc8 423d
00000350: 8e6c 113d 077c 16bc 5daf e13c eb11 adbc
00000360: 7155 16bd 4699 c7bb 2c38 00bd 8eb1 81bc
00000370: 139b 0f3d 196c 40bd 6fef b93c 2cf2 e4bb
00000380: 6b13 2c3d 45a7 91ba 1a7d 8ebc 35de b73c
00000390: f8c9 4dbd a23f 96bc 452b 82bc fd4c 0c3d
000003a0: b856 21bc 5508 09bb 8316 75bc 8be4 923c
000003b0: 1af3 c8b9 b130 5abd d2b6 47bc 6585 053d
000003c0: 3803 b839 afaf 19bd 0d52 803d f2e0 043d
000003d0: 10e7 bb3c 11c9 81bc 7da5 0fbd 2d33 453c
000003e0: 699f 3abb 63b2 96bc 5114 83bd db64 22bc
000003f0: e6e5 a0bc 6093 1dbd 00e0 7f38 70ec 9ebc
-0.03856393 0.032472283 -0.029839404 -0.03518786 0.021131769 -0.00030132342 -0.013083957 -0.037544392
-0.007807333 0.0023996318 -0.012980513 -0.013254056 0.038770538 0.038307272 0.041608587 -0.009031493
0.017386016 0.024204226 0.004058622 0.023162885 0.0022045115 -0.017034238 -0.02567416 -0.00937623
-0.05362701 0.01196327 0.009734301 0.05430179 0.04098576 -0.009283507 -0.010793694 -0.07074695
-0.00054420624 -0.06064169 -0.0047329357 -0.043867875 -0.039420683 0.000303164 -0.012081128 -0.022048362
0.0017443352 -0.024062179 -0.012146434 -0.043076605 -0.0091442205 0.029598624 -0.0334823 -0.034783915
0.014096415 -0.035865895 0.041607585 0.0029103232 -0.025943846 0.034308944 -0.012694347 0.031160586
0.0033452942 0.01700095 0.01431709 0.009725213 -0.009823958 -0.015119372 0.038078073 0.021451797
0.008661541 0.024594562 -0.006628683 0.0035812252 0.02168476 -0.011857131 0.0068695005 0.016695596
0.023805084 0.019730132 -0.008942539 -0.009372158 0.006545368 -0.036308926 -0.02967728 -0.118206
-0.0115886135 0.00025650422 0.043829415 0.042086024 0.013136844 -0.009679446 0.02707911 -0.013772557
-0.019114243 0.04637199 0.02710709 0.02389915 0.023769464 0.038806263 -0.0005517979 -0.0059227566
0.01958713 -0.022792658 -0.03930283 0.023694 -0.0007021129 -0.0032306365 0.022006154 9.36985e-05
0.03621059 0.0012593418 0.008883908 -0.040093727 -0.01199519 0.010916799 0.03666667 -0.0014974618
-0.032645117 0.028141469 -0.0023034625 0.025042778 0.01564476 -0.028907662 0.0006287595 0.023427248
-0.04064309 -0.0008504451 -0.022338506 0.02466413 0.021971863 0.028370714 0.037988886 0.0064343503
0.008686523 0.009594042 -0.048981037 0.02916339 0.014291075 -0.045790285 0.008343852 -0.018216651
-0.0356621 -0.030737564 -0.034537997 -0.038538493 0.02653758 0.04003299 -0.002344199 -0.06685393
0.031701848 0.019407406 0.036797304 -0.025360692 0.0062380973 -0.017932639 0.01706204 -0.0098859975
-0.009020581 0.054434527 0.07045362 0.03629676 -0.056555904 -0.050472084 0.02023121 0.021070912
-0.032657914 -0.040834345 0.01754323 0.018510126 0.022080855 0.03292264 -0.024275623 0.026370173
-0.015794704 -0.033737093 -0.010923542 0.049295332 0.043751694 0.04219837 -0.050691977 -0.024861924
-0.010676006 0.000282539 -0.04028191 -0.04915986 0.014310321 0.0005341371 -0.029341027 0.036251236
0.022552198 -0.028065177 0.018577889 0.025318056 0.027116515 -0.044089682 0.026253374 0.037612576
-0.0015085618 0.011028367 -0.038341574 -0.016275194 0.0007691866 -0.06708062 -0.006135851 -0.03491264
-0.021586448 -0.022071546 -0.014488162 -0.012428542 -0.021294156 -0.022527222 -0.026951164 -0.015478167
-0.019143404 0.040153433 -0.024791837 0.04755431 0.035503916 -0.009184844 0.02754944 -0.021126708
-0.036702577 -0.0060912697 -0.03130357 -0.015831735 0.03506 -0.04697809 0.022697179 -0.006986877
0.042010706 -0.0011112472 -0.017393637 0.022444824 -0.05024144 -0.01834089 -0.015889773 0.03425311
-0.0098473355 -0.0020909507 -0.0149589805 0.017931243 -0.00038328097 -0.053269092 -0.012189584 0.032597918
0.00035097613 -0.03752106 0.0626565 0.032441087 0.022937328 -0.015842946 -0.03506993 0.012036127
-0.0028476364 -0.018395608 -0.064003594 -0.009911741 -0.019640874 -0.038470626 6.1005354e-05 -0.019399852

left_cnn.8.bias f4 [64]
00000000: 23ef 6b3d 5ed9 32bd f256 d83c d9dc 06bd
00000010: 9da1 e5bc c7d0 743a 6c2b b43d be1a 1d3d
00000020: d426 2c3c cfbb 2cbd 9658 59bd 662e be3d
00000030: 7534 1c3d ce50 a2bc 8601 f73c 13a7 0f3c
00000040: 1646 6dbd 9fd4 9c3d 8ed6 813d b020 8b3c
00000050: b85f aabc f7f1 2bbd 339b ef3b cfff 5dbc
00000060: 0e34 cf3c eda0 10bd 546b 80bc 43cd 02bd
00000070: 1952 563d 94e4 3a3d 57d6 d83c c936 8f3c
00000080: 94f8 66bd 73a4 863c 72fc 873d 5101 21bd
00000090: 881e f53c e2e6 a43d e5f9 8b3d 6910 393d
000000a0: 9709 2cbd 448d 02bd 4167 a9bc 8d68 5cbc
000000b0: 9970 263d b763 c23b fe19 563d ada1 f1bc
000000c0: 5d18 0abc bd96 003c 2a7b 3ebd aea7 b3bc
000000d0: 2fc0 323d 2e84 dd3c ad1f 1a3d 72bf 75bb
000000e0: c212 7c3d cacd 5e3d 4971 bbbc a47d 0bbd
000000f0: e6f8 243b 867f da3d 92c6 7a3c 03fa 713d
0.057601105 -0.04366433 0.026408646 -0.03292546 -0.028031165 0.00093389716 0.087973446 0.03835558
0.010507304 -0.042171296 -0.053062998 0.092861935 0.038135964 -0.019813921 0.030152094 0.008767861
-0.057928167 0.07657742 0.06339751 0.01698336 -0.020797595 -0.041978803 0.0073122024 -0.013549759
0.025293376 -0.03530972 -0.015676178 -0.031934034 0.05232439 0.045628145 0.026469393 0.017482178
-0.056389406 0.016435837 0.06639947 -0.039307896 0.029921785 0.0805185 0.06834773 0.045181666
-0.042001333 -0.031873003 -0.020679118 -0.013452661 0.040634725 0.005932297 0.05227088 -0.029496038
-0.00842866 0.007848439 -0.046504177 -0.021930542 0.04364031 0.027040567 0.037627865 -0.0037498144
0.061541326 0.054395474 -0.022881167 -0.034055367 0.002517277 0.106688544 0.015306132 0.05907632

left_classification.0.weight f4 [32, 384]
00000000: 1893 513d fe61 9a3d d50d 333d 0559 973d
00000010: f833 113c c13a 903a 5281 223b cac8 e6bc
00000020: 25bf 363d 26d3 42bd 1406 1ebd 54b2 ff3a
00000030: dc02 883d 357e 0e3c 96a9 0e3d ecf7 a73d
00000040: 5b50 b1ba c9bb f93c 6856 9fbc e5ee 25bd
00000050: 8282 38bd 6515 b93c c003 e63c 0070 b4bc
00000060: 78b0 7ebc cf93 9cbb 9de0 c03b a7cc d03c
00000070: 3301 bf3c 398e e9bc 146a 003d 979a e73c
00000080: b018 a83b 6b63 2f3d 1915 21bd a626 b0bb
00000090: 15da 9f3c acf9 16bd 70f1 75bd b509 60bd
000000a0: 5b5a 6dbd b76c 35be f449 a83d d1ef d43b
000000b0: 26bc 04bd 172f b73d 9263 8d3d 2b0f 143e
000000c0: 4cc2 52bb c084 a73d 18d0 8e3d ea0a 2e3d
000000d0: 1233 34bc 683a 703d ab51 ac3c e1f1 4cbc
000000e0: bff1 20bc a169 103d a6e2 093d 3198 95bb
000000f0: 6e91 3fbc 5b3e 1e3c 84d6 29bd c861 1fbd
00000100: 15ea 6a3d 172d c43c 80eb 253c a84c e13d
00000110: 809d 8c3d 98f6 273d 55a4 ba3b 2d3a f5bc
00000120: 7a35 ca3d c261 3d3e 6527 b23d 0ca3 2fbd
00000130: dbfc 193d de7d de3c 5ae9 293c d6ee 303d
00000140: 2bfe e6bc 6859 2d3b 3c32 c2bc 465c 21bc
00000150: 4a6d bd3d 95bb a13d b1c7 e13c e803 19bd
00000160: e72b 2c3c 9fa9 993d 27fc 663d 133d e23d
00000170: b831 c03d 2660 423d 2302 793d bad8 afbd
00000180: 2470 db3c 04c7 543c b442 10bc 564c 1b3d
00000190: eea9 383c 9cd3 3abd 7707 0a3d 34b9 0fbc
000001a0: a7a1 1d3d 3069 813c b820 033e f90f 55be
000001b0: 2219 13bb f0c8 293d 5ccb 993d a5f3 90bd
000001c0: 8e74 473d 2d05 283d 311a 973b ab9e b73c
000001d0: 63bb 11bd 3381 a83c 0d8e 3bbd b4d5 27bd
000001e0: a72f d13c 0c1b 00bd 4e68 0abd de2a 4bbd
000001f0: 0b44 663c d6ec 243b b52e 92bc d043 053d
00000200: 2e68 24bd 868a 143d 69a6 523c fb90 38bd
00000210: f9da 693d ec7a 263d 22f5 123d 728c 193e
00000220: c562 67bd 0fd5 803c 39b6 f73c 8750 0d3c
00000230: bc93 e9bc 29ee ce3c 7b85 843c 1986 083d
00000240: f554 c8bc 1a90 debb a47d e33c 1118 7b3d
00000250: 845b c0bb 87d0 a7bc d053 a2bc d1c9 afbc
00000260: e32d a8bb f9de 41bd 17bd 66bd 12c6 f63c
00000270: dbb4 da3b cc0c 22bd ba7b 11bd 54f2 863c
00000280: 6aab 38bd 696e 123d 1639 2b3c 4243 5cbc
00000290: 79b3 263c ae46 b6bb d35e 433d 1baa 19bd
000002a0: 4ff5 883b 5c8c bb3d 8377 9b3c 1e2b 5bbc
000002b0: 8578 5f3d 77e1 0fbd 5488 9c3c 3e00 6b3d
000002c0: b5bb e43c 7192 833c 6620 7cbb 2c60 97bc
000002d0: 5367 073d 309f 8a3a da3b 4b3c fc8a 963c
000002e0: 401c cc3c 9edc 9c3c f334 923c 9712 eabb
000002f0: a530 debc 5d4f 2ebd 4491 98bc 92b7 c03c
00000300: fc51 9fbc de03 babb 4166 3f3d 42c7 bdbc
00000310: b1b9 563c a3d8 4ebc 7aa1 0b3d 7ab8 503c
00000320: e9f9 993d 3ceb 193d 5162 063d 3534 273d
00000330: cb34 893d 596d 9f3d 4010 2d3d 544e 743c
00000340: 9965 383c 3103 9b3d 4012 6b3a b81a babc
00000350: f75c bcbc 8346 8e3c 7f67 6c3c 4a5e eebc
00000360: d71f 263b 9257 38bd 1142 e6bc 037b 91bc
00000370: d59b 08bd fbd7 323d 4615 8e3d a92e 903d
00000380: 12f6 afb9 6955 cdbc 3085 bdbd 82df 593d
00000390: 4b41 bbbb 2210 6ebc a71f 0a3d 4ed1 923c
000003a0: 67a7 b43c cd49 a03d 09ac b93c 2212 15bd
000003b0: a6a7 f6bc 3cdb e1bc 493f 973c 00e0 d2bc
000003c0: 94f5 1a3d c458 413d 1e10 4c3c 10b2 c6bb
000003d0: 2eca 9dbb 9464 e1bc 676e 7d3d 0474 5bbc
000003e0: 6f36 19bd 943e 773c 5935 6cbd 8260 e0bc
000003f0: 997f 3d3d be58 893c 068a 0cbd 311c f83c
0.05116567 0.07538222 0.043714363 0.07390026 0.008862488 0.0011003838 0.002479632 -0.028171916
0.044615883 -0.047564648 -0.038580015 0.0019508102 0.066411704 0.008697082 0.0348297 0.08201584
-0.0013527976 0.03048505 -0.019450381 -0.04051103 -0.045046337 0.02259321 0.02807796 -0.022026062
-0.015545003 -0.0047783623 0.005886151 0.02548821 0.023316002 -0.0285102 0.031351164 0.028271956
0.005129896 0.04281942 -0.03932676 -0.005375701 0.01951317 -0.0368592 -0.060044706 -0.054696757
-0.057947498 -0.17717253 0.082172304 0.006498315 -0.032405995 0.089445285 0.06903757 0.14458911
-0.0032159267 0.08179617 0.069732845 0.042490877 -0.010998504 0.05864945 0.021035036 -0.01250884
-0.009823262 0.035256986 0.033663414 -0.004565262 -0.011692388 0.009658421 -0.041464344 -0.03891161
0.057352144 0.023947282 0.010126948 0.11000949 0.06865978 0.041006655 0.0056958594 -0.029934967
0.09873481 0.18494323 0.0869892 -0.042880103 0.037594657 0.027159628 0.010370577 0.04319652
-0.028197369 0.0026450995 -0.023705594 -0.00984866 0.09249361 0.078971066 0.02756104 -0.03735724
0.010508514 0.07503056 0.056392815 0.11046805 0.09384483 0.047454976 0.060793053 -0.08586259
0.026786871 0.012986902 -0.008804966 0.037914596 0.011270983 -0.045611963 0.033698525 -0.008772183
0.03848424 0.015797228 0.1280545 -0.20806874 -0.00224454 0.041451395 0.07509491 -0.070777215
0.04869514 0.04102056 0.0046112766 0.022414526 -0.035579097 0.02056942 -0.045789767 -0.040975288
0.025535418 -0.031275794 -0.03379088 -0.04960143 0.014054309 0.002516558 -0.017844537 0.032535374
-0.040138416 0.03626492 0.012857058 -0.04506014 0.057093594 0.04064457 0.035878308 0.14994982
-0.05649068 0.015726594 0.030238258 0.008625156 -0.028512828 0.025260048 0.01617693 0.03333101
-0.024454573 -0.0067920806 0.027769871 0.06130225 -0.0058702845 -0.020485176 -0.019815356 -0.021458538
-0.0051324232 -0.047331784 -0.056332674 0.030123744 0.0066743917 -0.039562985 -0.035518385 0.016472973
-0.04508535 0.035749827 0.010450622 -0.01344377 0.010174626 -0.005562625 0.047697853 -0.03751574
0.0041796337 0.09157631 0.018977886 -0.013376979 0.054558296 -0.03512713 0.019107975 0.057373278
0.027921537 0.01606104 -0.003847146 -0.018478476 0.033057522 0.0010576006 0.012404406 0.01837682
0.024915814 0.019148167 0.017847514 -0.0071433294 -0.027122805 -0.042556155 -0.018623956 0.023525033
-0.019448273 -0.0056767305 0.046728376 -0.023166303 0.013105796 -0.012624892 0.034089543 0.012739295
0.0751837 0.037577853 0.032808606 0.040821273 0.066995226 0.07784528 0.042251825 0.014911253
0.0112546915 0.07568968 0.0008967258 -0.022717819 -0.022993548 0.017367607 0.014428972 -0.029097695
0.0025348568 -0.04500539 -0.028107675 -0.017758852 -0.033351738 0.043663006 0.06937651 0.0704015
-0.00033561938 -0.02506514 -0.09253919 0.05319167 -0.0057145706 -0.014530214 0.033721592 0.01792207
0.02205248 0.078265764 0.02266504 -0.036394246 -0.030109238 -0.02757036 0.018462794 -0.025741577
0.037831858 0.047203794 0.0124550145 -0.006063707 -0.0048153615 -0.02751378 0.061872866 -0.0133943595
-0.037405428 0.015090603 -0.057668064 -0.027389769 0.046264265 0.016765948 -0.034311317 0.03028688

left_classification.0.bias f4 [32]
00000000: 552f a23c 068a 0b3c b9b2 02bd 98df 673c
00000010: 2641 db3b cd34 adbc 2e29 53ba 5e8c 9cbd
00000020: 10a7 393d 114e 5abd 88bf 093d e208 c83c
00000030: cac8 77bd 59e9 1fbd 6b80 6e3c 6f5b 613a
00000040: 4427 95bd 003d 763d 1981 1b3d 9a71 673d
00000050: 90a6 b1ba b350 5c3d d334 93bd d04b 913b
00000060: 13b2 11bd 9c3f 80bc 891c f3bb 8426 633c
00000070: 5263 25bd 9202 8bbd 90c0 1f3d 7eec 903d
0.01979796 0.008516794 -0.031908724 0.01415243 0.006691116 -0.021143341 -0.00080551475 -0.076439604
0.04532534 -0.053297106 0.033629924 0.024418298 -0.06049422 -0.039040897 0.014556984 0.00085966935
-0.0728288 0.060116768 0.037964914 0.056504823 -0.0013553668 0.0537879 -0.0718781 0.0044340864
-0.035570215 -0.015655331 -0.007419173 0.013864163 -0.040377922 -0.067875996 0.039002 0.07076357

left_classification.2.weight f4 [16, 32]
00000000: ddd1 b33c e0c1 723c b003 8bbd d7b7 08bc
00000010: 3206 b2bc 82c2 79bd 1a74 eebd 1a20 a3bd
00000020: 5ac3 363e 3dd3 993d 8879 b7bd dae9 b8bd
00000030: b3b7 de3d 54f6 cabd b8ec 153e 4d4d 22be
00000040: 595d b73d 3776 20be 1e4e 25be c986 83bd
00000050: bf6a 3fbe dfac 15be 8df6 d0bd bd2d 39be
00000060: 4eb3 8c3c 2875 bfbd b23f 0a3e 19ee 7e3e
00000070: d434 713d 8be1 863d f46c 50be a0e7 dfbd
00000080: 7c87 c2bc a6d2 083d 9f84 23be f44d f83d
00000090: 7846 123e 1820 bfbd ac88 20be 2d15 c33d
000000a0: e307 96bd 156d ce3b 3c99 3bbe ccfa c2bd
000000b0: 0018 0f3c dde1 d93d d480 52bd bcf3 d13d
000000c0: 9d8f 893c e14a 083e 1a0c c93d 1e7a edbd
000000d0: 1280 193d 71ba eabb 7459 0a3e 1335 80be
000000e0: 07ac aabc 8086 b93c 0338 9d3d e84c 813d
000000f0: 071d 3a3e 2fd4 25bd a9b0 2f3e 3955 52be
00000100: f72e 99bc 2913 8d3c 77b4 20be b0f3 aebb
00000110: c47b 25be de6f 98bb 75ea b23d a74c 06be
00000120: e69d 42be 8ed3 e43d b4db e1bc 5340 f3bd
00000130: eedf 7dbd 0b17 c0bd b47e 2b3d e693 883e
00000140: 4d2c 26be 9905 2f3d 3ad6 25bd 15bf 103d
00000150: 26f8 6fbc adb9 163e 6d49 5f3b aa06 ecbb
00000160: efee 00be ae48 71be 4afc df3d 7b30 1cbe
00000170: 8fda cb3d fd19 1f3e 4961 e83c 73df 69be
00000180: 73e1 523c 16c1 b73c 8218 843b e934 f0bd
00000190: 38d5 bcbd 0236 44be b55f 03be b164 0a3e
000001a0: a018 4a3e bf36 35be 34b5 833c ccb5 6f3d
000001b0: 958a fabd a681 b7bd 3d74 973d 4aae ff3c
000001c0: b78a 36be c3f2 c83d c84a a13d 6070 1fbe
000001d0: c10b 9ebe 0123 a9bc a1d1 31be cd3a 8bbd
000001e0: 2927 d13d b20d 293e d243 89be b08c 34be
000001f0: aca1 4ebe db09 95be fa68 80be 67d9 5e3e
00000200: 94a9 72be 6272 fb3d 20f8 0f3e bf84 6a3d
00000210: efe7 a63d f5ae a43d c416 ad3d a755 aebd
00000220: 833b e53d 2072 ac3c a907 c6bd 1ab5 393c
00000230: 7a33 063e 7649 0f3e 6840 b53c 398b 0f3e
00000240: a0a5 a73d da38 3d3d 4f58 febc 4cc1 19be
00000250: e482 83bc d242 efbd 6fdd 7c3d 4b3b 633d
00000260: ab08 1c3c 11e0 ad3c 7204 0dbc 4270 ca3c
00000270: b647 9c3d 0408 8d3d 3a0b bf3d dc1e d8bc
00000280: b35a 913d da3e aa3c a1b7 2cbd c77f 0abd
00000290: d0b7 79bd b149 00be 9607 113e 4c15 fcbc
000002a0: c21b fd3d c441 d83d 7af3 19be a63e a8bc
000002b0: 3def b0bc cf78 00be d162 7bbd 82c5 e43d
000002c0: 467e 39be dd8a 3ebe 245a adbc e0e6 073e
000002d0: 610e 6fbd 8c4a ab3d 6e0e fcbd 9253 14be
000002e0: b69f c93d a3bc 883e 5d06 6cbd 7634 813d
000002f0: f324 c2bd 8dd6 83be 3eac 82bd 295b 443e
00000300: 21d0 c9bd ea4a b0bc ccd6 d1bd 3390 5fbe
00000310: e0bf 8b3d df26 08be 16d1 96bd 21a7 ac3d
00000320: 41bf 193e 585c 3abc 4ae4 29be c625 223d
00000330: 393f d4bb 056b 93be 6be7 2abe bcc4 6cbe
00000340: b95f 8a3c 72ce 323e cfb9 8c3d f175 a43d
00000350: c413 66ba 5dc0 443d 31ce 17be ff98 68be
00000360: 4ad6 0dbd 7f7e e2bd f866 acbd 5ac8 0bbe
00000370: 5ce1 403c fc8f 7ebe ca67 05be 4e4a a13d
00000380: c9ee b43d 9d2e be3d 8c4f acbc e15b 62bc
00000390: f51e b9bd 3e72 793d 27eb 023d 7340 8e3d
000003a0: bd54 ef3d 5463 01be c6c2 ed3d 7685 cb3d
000003b0: cc04 b63d 9295 27bc 1ce6 303e 26d9 18bd
000003c0: cef5 08be 57f6 ac3c b3f6 0a3e 3031 3ebe
000003d0: 5fdc af3c ddbd 4abe 949f 0d3e a976 51be
000003e0: e377 9f3d 0df4 aebb e178 0d3e 4ff2 663e
000003f0: 74e9 0cbe 40aa 513d febc 55bd b2d3 8f3d
0.021950657 0.014816731 -0.06787813 -0.008344612 -0.02173147 -0.060976513 -0.11643238 -0.07965107
0.17847958 0.07510994 -0.08958727 -0.09028979 0.108748816 -0.099102646 0.14641082 -0.158498
0.089533515 -0.15670095 -0.1614308 -0.064221926 -0.18693064 -0.14616726 -0.10203276 -0.18083854
0.017175343 -0.09348518 0.1350086 0.24895515 0.05888827 0.06585988 -0.20354062 -0.10932851
-0.023746245 0.033404015 -0.1596856 0.121242434 0.14284694 -0.09332293 -0.15677136 0.09525523
-0.07325723 0.0062996247 -0.18320173 -0.09520492 0.008733749 0.10638783 -0.05139239 0.10251567
0.016792113 0.13309814 0.09816761 -0.11595558 0.037475653 -0.007163339 0.13510686 -0.25040492
-0.020833982 0.022647142 0.07676699 0.06313497 0.18175136 -0.040485557 0.17157234 -0.20540322
-0.018699152 0.01722105 -0.15693842 -0.0053391084 -0.16160494 -0.0046520075 0.087361254 -0.13115178
-0.19005546 0.11173163 -0.027570583 -0.11877503 -0.061981134 -0.09379395 0.04186888 0.26675338
-0.16227837 0.042729948 -0.040487505 0.03533848 -0.014646566 0.14719267 0.0034070865 -0.007202943
-0.12591146 -0.23562881 0.10936792 -0.15252869 0.09953796 0.15537257 0.028366702 -0.22839145
0.012871134 0.022430938 0.004031242 -0.11728842 -0.09220356 -0.19161227 -0.12829478 0.13514973
0.19735956 -0.17696665 0.016077615 0.058522984 -0.12233464 -0.08960275 0.073952176 0.031211037
-0.17826353 0.09811928 0.078755915 -0.15570211 -0.30868343 -0.020646574 -0.17365123 -0.06798325
0.10212547 0.1650913 -0.26809555 -0.17631793 -0.2017886 -0.29109082 -0.2508009 0.2176262
-0.23697501 0.12277676 0.14059496 0.057255503 0.081497066 0.08041183 0.08451608 -0.08512431
0.111929916 0.021050513 -0.0966943 0.011334682 0.13105574 0.13992867 0.022125438 0.14017953
0.08185887 0.046196796 -0.031047968 -0.15015143 -0.016053624 -0.11682667 0.061734613 0.055476468
0.009523551 0.021225007 -0.008607017 0.024711732 0.07630865 0.068862945 0.09328313 -0.026381902
0.07097378 0.020781923 -0.04216731 -0.033813264 -0.060966313 -0.12528111 0.1416305 -0.030771874
0.1235881 0.10559419 -0.15034285 -0.020537686 -0.021598453 -0.12546085 -0.061373536 0.11170484
-0.18114576 -0.1860766 -0.021161146 0.13271666 -0.058363322 0.08363828 -0.1230744 -0.14485005
0.098449156 0.26706418 -0.057623256 0.06308834 -0.09479704 -0.25749627 -0.06380509 0.191754
-0.098541506 -0.021520097 -0.102460474 -0.21832351 0.068237066 -0.13296078 -0.07364099 0.08430315
0.15014364 -0.0113745555 -0.16590992 0.039586805 -0.0064772633 -0.28792587 -0.16689841 -0.23121923
0.016891347 0.17461565 0.06871378 0.08030308 -0.0008776749 0.048035014 -0.1482475 -0.22714613
-0.03462819 -0.110592835 -0.08418077 -0.13650647 0.01177248 -0.24859613 -0.13027874 0.078755006
0.08834607 0.092862345 -0.021034025 -0.013815851 -0.09039108 0.060899965 0.03196254 0.069458865
0.116860844 -0.12635547 0.11609416 0.09937565 0.08887634 -0.010228531 0.1727528 -0.037316464
-0.13375017 0.021113558 0.13570671 -0.18573451 0.021467386 -0.1979899 0.13830405 -0.20455422
0.077865385 -0.0053391517 0.13815643 0.22553371 -0.1376093 0.051187754 -0.05218219 0.070227996

left_classification.2.bias f4 [16]
00000000: 6f09 603d 3d1d af3d 30f6 91bc baf8 af3d
00000010: 1561 913d 79f3 c93c 26d9 723c 953d 703e
00000020: eb2a a93d 1a70 70bb 9abe e73d 2f7e b23d
00000030: 20ef 2ebd c340 32be 8fe8 a63d bdc1 e03d
0.054696497 0.08550499 -0.017817587 0.08592363 0.07098595 0.02465223 0.01482228 0.23460992
0.08260139 -0.0036687911 0.11315651 0.08715474 -0.042708516 -0.17407517 0.08149826 0.10974453
